<?xml version="1.0" ?>
<net name="frozen_graph" version="11">
	<layers>
		<layer id="0" name="x" type="Parameter" version="opset1">
			<data shape="1,224,224,3" element_type="f32"/>
			<rt_info>
				<attribute name="fused_names" version="0" value="x"/>
				<attribute name="old_api_map_element_type" version="0" value="f16"/>
				<attribute name="old_api_map_order" version="0" value="0, 2, 3, 1"/>
			</rt_info>
			<output>
				<port id="0" precision="FP32" names="x,x:0">
					<dim>1</dim>
					<dim>224</dim>
					<dim>224</dim>
					<dim>3</dim>
				</port>
			</output>
		</layer>
		<layer id="1" name="x/Transpose([0 3 1 2])/value1584620609" type="Const" version="opset1">
			<data element_type="i64" shape="4" offset="0" size="32"/>
			<rt_info>
				<attribute name="fused_names" version="0" value="x/Transpose([0 3 1 2])/value1584620609"/>
			</rt_info>
			<output>
				<port id="0" precision="I64">
					<dim>4</dim>
				</port>
			</output>
		</layer>
		<layer id="2" name="x/Transpose([0 3 1 2])" type="Transpose" version="opset1">
			<rt_info>
				<attribute name="fused_names" version="0" value="x/Transpose([0 3 1 2])"/>
			</rt_info>
			<input>
				<port id="0" precision="FP32">
					<dim>1</dim>
					<dim>224</dim>
					<dim>224</dim>
					<dim>3</dim>
				</port>
				<port id="1" precision="I64">
					<dim>4</dim>
				</port>
			</input>
			<output>
				<port id="2" precision="FP32">
					<dim>1</dim>
					<dim>3</dim>
					<dim>224</dim>
					<dim>224</dim>
				</port>
			</output>
		</layer>
		<layer id="3" name="data_mul_1197420789_compressed" type="Const" version="opset1">
			<data element_type="f16" shape="1, 1, 1, 1" offset="32" size="2"/>
			<output>
				<port id="0" precision="FP16">
					<dim>1</dim>
					<dim>1</dim>
					<dim>1</dim>
					<dim>1</dim>
				</port>
			</output>
		</layer>
		<layer id="4" name="data_mul_1197420789" type="Convert" version="opset1">
			<data destination_type="f32"/>
			<rt_info>
				<attribute name="decompression" version="0"/>
				<attribute name="fused_names" version="0" value="data_mul_1197420789"/>
			</rt_info>
			<input>
				<port id="0" precision="FP16">
					<dim>1</dim>
					<dim>1</dim>
					<dim>1</dim>
					<dim>1</dim>
				</port>
			</input>
			<output>
				<port id="1" precision="FP32">
					<dim>1</dim>
					<dim>1</dim>
					<dim>1</dim>
					<dim>1</dim>
				</port>
			</output>
		</layer>
		<layer id="5" name="x/scale/Fused_Mul_" type="Multiply" version="opset1">
			<data auto_broadcast="numpy"/>
			<rt_info>
				<attribute name="fused_names" version="0" value="x/scale/Fused_Mul_"/>
			</rt_info>
			<input>
				<port id="0" precision="FP32">
					<dim>1</dim>
					<dim>3</dim>
					<dim>224</dim>
					<dim>224</dim>
				</port>
				<port id="1" precision="FP32">
					<dim>1</dim>
					<dim>1</dim>
					<dim>1</dim>
					<dim>1</dim>
				</port>
			</input>
			<output>
				<port id="2" precision="FP32">
					<dim>1</dim>
					<dim>3</dim>
					<dim>224</dim>
					<dim>224</dim>
				</port>
			</output>
		</layer>
		<layer id="6" name="data_add_1197620771_compressed" type="Const" version="opset1">
			<data element_type="f16" shape="1, 3, 1, 1" offset="34" size="6"/>
			<output>
				<port id="0" precision="FP16">
					<dim>1</dim>
					<dim>3</dim>
					<dim>1</dim>
					<dim>1</dim>
				</port>
			</output>
		</layer>
		<layer id="7" name="data_add_1197620771" type="Convert" version="opset1">
			<data destination_type="f32"/>
			<rt_info>
				<attribute name="decompression" version="0"/>
				<attribute name="fused_names" version="0" value="data_add_1197620771"/>
			</rt_info>
			<input>
				<port id="0" precision="FP16">
					<dim>1</dim>
					<dim>3</dim>
					<dim>1</dim>
					<dim>1</dim>
				</port>
			</input>
			<output>
				<port id="1" precision="FP32">
					<dim>1</dim>
					<dim>3</dim>
					<dim>1</dim>
					<dim>1</dim>
				</port>
			</output>
		</layer>
		<layer id="8" name="x/mean/Fused_Add_" type="Add" version="opset1">
			<data auto_broadcast="numpy"/>
			<rt_info>
				<attribute name="fused_names" version="0" value="x/mean/Fused_Add_"/>
			</rt_info>
			<input>
				<port id="0" precision="FP32">
					<dim>1</dim>
					<dim>3</dim>
					<dim>224</dim>
					<dim>224</dim>
				</port>
				<port id="1" precision="FP32">
					<dim>1</dim>
					<dim>3</dim>
					<dim>1</dim>
					<dim>1</dim>
				</port>
			</input>
			<output>
				<port id="2" precision="FP32">
					<dim>1</dim>
					<dim>3</dim>
					<dim>224</dim>
					<dim>224</dim>
				</port>
			</output>
		</layer>
		<layer id="9" name="sequential_8/sequential_5/model2/bn_Conv1/FusedBatchNormV3/mean/Fused_Mul__copy_compressed" type="Const" version="opset1">
			<data element_type="f16" shape="16, 3, 3, 3" offset="40" size="864"/>
			<output>
				<port id="0" precision="FP16">
					<dim>16</dim>
					<dim>3</dim>
					<dim>3</dim>
					<dim>3</dim>
				</port>
			</output>
		</layer>
		<layer id="10" name="sequential_8/sequential_5/model2/bn_Conv1/FusedBatchNormV3/mean/Fused_Mul__copy" type="Convert" version="opset1">
			<data destination_type="f32"/>
			<rt_info>
				<attribute name="decompression" version="0"/>
				<attribute name="fused_names" version="0" value="sequential_8/sequential_5/model2/bn_Conv1/FusedBatchNormV3/mean/Fused_Mul__copy"/>
			</rt_info>
			<input>
				<port id="0" precision="FP16">
					<dim>16</dim>
					<dim>3</dim>
					<dim>3</dim>
					<dim>3</dim>
				</port>
			</input>
			<output>
				<port id="1" precision="FP32" names="sequential_8/sequential_5/model2/Conv1/Conv2D/ReadVariableOp:0">
					<dim>16</dim>
					<dim>3</dim>
					<dim>3</dim>
					<dim>3</dim>
				</port>
			</output>
		</layer>
		<layer id="11" name="sequential_8/sequential_5/model2/Conv1/Conv2D" type="Convolution" version="opset1">
			<data strides="2, 2" dilations="1, 1" pads_begin="0, 0" pads_end="1, 1" auto_pad="explicit"/>
			<rt_info>
				<attribute name="fused_names" version="0" value="sequential_8/sequential_5/model2/Conv1/Conv2D, sequential_8/sequential_5/model2/Conv1_pad/Pad"/>
			</rt_info>
			<input>
				<port id="0" precision="FP32">
					<dim>1</dim>
					<dim>3</dim>
					<dim>224</dim>
					<dim>224</dim>
				</port>
				<port id="1" precision="FP32">
					<dim>16</dim>
					<dim>3</dim>
					<dim>3</dim>
					<dim>3</dim>
				</port>
			</input>
			<output>
				<port id="2" precision="FP32">
					<dim>1</dim>
					<dim>16</dim>
					<dim>112</dim>
					<dim>112</dim>
				</port>
			</output>
		</layer>
		<layer id="12" name="data_add_1197911984_compressed" type="Const" version="opset1">
			<data element_type="f16" shape="1, 16, 1, 1" offset="904" size="32"/>
			<output>
				<port id="0" precision="FP16">
					<dim>1</dim>
					<dim>16</dim>
					<dim>1</dim>
					<dim>1</dim>
				</port>
			</output>
		</layer>
		<layer id="13" name="data_add_1197911984" type="Convert" version="opset1">
			<data destination_type="f32"/>
			<rt_info>
				<attribute name="decompression" version="0"/>
				<attribute name="fused_names" version="0" value="data_add_1197911984"/>
			</rt_info>
			<input>
				<port id="0" precision="FP16">
					<dim>1</dim>
					<dim>16</dim>
					<dim>1</dim>
					<dim>1</dim>
				</port>
			</input>
			<output>
				<port id="1" precision="FP32">
					<dim>1</dim>
					<dim>16</dim>
					<dim>1</dim>
					<dim>1</dim>
				</port>
			</output>
		</layer>
		<layer id="14" name="sequential_8/sequential_5/model2/bn_Conv1/FusedBatchNormV3/variance/Fused_Add_" type="Add" version="opset1">
			<data auto_broadcast="numpy"/>
			<rt_info>
				<attribute name="fused_names" version="0" value="sequential_8/sequential_5/model2/bn_Conv1/FusedBatchNormV3/variance/Fused_Add_"/>
			</rt_info>
			<input>
				<port id="0" precision="FP32">
					<dim>1</dim>
					<dim>16</dim>
					<dim>112</dim>
					<dim>112</dim>
				</port>
				<port id="1" precision="FP32">
					<dim>1</dim>
					<dim>16</dim>
					<dim>1</dim>
					<dim>1</dim>
				</port>
			</input>
			<output>
				<port id="2" precision="FP32" names="sequential_8/sequential_5/model2/bn_Conv1/FusedBatchNormV3:0">
					<dim>1</dim>
					<dim>16</dim>
					<dim>112</dim>
					<dim>112</dim>
				</port>
			</output>
		</layer>
		<layer id="15" name="sequential_8/sequential_5/model2/Conv1_relu/Relu6" type="Clamp" version="opset1">
			<data min="0" max="6"/>
			<rt_info>
				<attribute name="fused_names" version="0" value="sequential_8/sequential_5/model2/Conv1_relu/Relu6"/>
			</rt_info>
			<input>
				<port id="0" precision="FP32">
					<dim>1</dim>
					<dim>16</dim>
					<dim>112</dim>
					<dim>112</dim>
				</port>
			</input>
			<output>
				<port id="1" precision="FP32" names="sequential_8/sequential_5/model2/Conv1_relu/Relu6:0">
					<dim>1</dim>
					<dim>16</dim>
					<dim>112</dim>
					<dim>112</dim>
				</port>
			</output>
		</layer>
		<layer id="16" name="sequential_8/sequential_5/model2/expanded_conv_depthwise_BN/FusedBatchNormV3/mean/Fused_Mul__copy_compressed" type="Const" version="opset1">
			<data element_type="f16" shape="16, 1, 1, 3, 3" offset="936" size="288"/>
			<output>
				<port id="0" precision="FP16">
					<dim>16</dim>
					<dim>1</dim>
					<dim>1</dim>
					<dim>3</dim>
					<dim>3</dim>
				</port>
			</output>
		</layer>
		<layer id="17" name="sequential_8/sequential_5/model2/expanded_conv_depthwise_BN/FusedBatchNormV3/mean/Fused_Mul__copy" type="Convert" version="opset1">
			<data destination_type="f32"/>
			<rt_info>
				<attribute name="decompression" version="0"/>
				<attribute name="fused_names" version="0" value="sequential_8/sequential_5/model2/expanded_conv_depthwise_BN/FusedBatchNormV3/mean/Fused_Mul__copy"/>
			</rt_info>
			<input>
				<port id="0" precision="FP16">
					<dim>16</dim>
					<dim>1</dim>
					<dim>1</dim>
					<dim>3</dim>
					<dim>3</dim>
				</port>
			</input>
			<output>
				<port id="1" precision="FP32" names="sequential_8/sequential_5/model2/expanded_conv_depthwise/depthwise/ReadVariableOp:0">
					<dim>16</dim>
					<dim>1</dim>
					<dim>1</dim>
					<dim>3</dim>
					<dim>3</dim>
				</port>
			</output>
		</layer>
		<layer id="18" name="sequential_8/sequential_5/model2/expanded_conv_depthwise/depthwise" type="GroupConvolution" version="opset1">
			<data strides="1, 1" pads_begin="0, 0" pads_end="0, 0" dilations="1, 1" auto_pad="same_upper"/>
			<rt_info>
				<attribute name="fused_names" version="0" value="sequential_8/sequential_5/model2/expanded_conv_depthwise/depthwise"/>
			</rt_info>
			<input>
				<port id="0" precision="FP32">
					<dim>1</dim>
					<dim>16</dim>
					<dim>112</dim>
					<dim>112</dim>
				</port>
				<port id="1" precision="FP32">
					<dim>16</dim>
					<dim>1</dim>
					<dim>1</dim>
					<dim>3</dim>
					<dim>3</dim>
				</port>
			</input>
			<output>
				<port id="2" precision="FP32">
					<dim>1</dim>
					<dim>16</dim>
					<dim>112</dim>
					<dim>112</dim>
				</port>
			</output>
		</layer>
		<layer id="19" name="data_add_1198711992_compressed" type="Const" version="opset1">
			<data element_type="f16" shape="1, 16, 1, 1" offset="1224" size="32"/>
			<output>
				<port id="0" precision="FP16">
					<dim>1</dim>
					<dim>16</dim>
					<dim>1</dim>
					<dim>1</dim>
				</port>
			</output>
		</layer>
		<layer id="20" name="data_add_1198711992" type="Convert" version="opset1">
			<data destination_type="f32"/>
			<rt_info>
				<attribute name="decompression" version="0"/>
				<attribute name="fused_names" version="0" value="data_add_1198711992"/>
			</rt_info>
			<input>
				<port id="0" precision="FP16">
					<dim>1</dim>
					<dim>16</dim>
					<dim>1</dim>
					<dim>1</dim>
				</port>
			</input>
			<output>
				<port id="1" precision="FP32">
					<dim>1</dim>
					<dim>16</dim>
					<dim>1</dim>
					<dim>1</dim>
				</port>
			</output>
		</layer>
		<layer id="21" name="sequential_8/sequential_5/model2/expanded_conv_depthwise_BN/FusedBatchNormV3/variance/Fused_Add_" type="Add" version="opset1">
			<data auto_broadcast="numpy"/>
			<rt_info>
				<attribute name="fused_names" version="0" value="sequential_8/sequential_5/model2/expanded_conv_depthwise_BN/FusedBatchNormV3/variance/Fused_Add_"/>
			</rt_info>
			<input>
				<port id="0" precision="FP32">
					<dim>1</dim>
					<dim>16</dim>
					<dim>112</dim>
					<dim>112</dim>
				</port>
				<port id="1" precision="FP32">
					<dim>1</dim>
					<dim>16</dim>
					<dim>1</dim>
					<dim>1</dim>
				</port>
			</input>
			<output>
				<port id="2" precision="FP32" names="sequential_8/sequential_5/model2/expanded_conv_depthwise_BN/FusedBatchNormV3:0">
					<dim>1</dim>
					<dim>16</dim>
					<dim>112</dim>
					<dim>112</dim>
				</port>
			</output>
		</layer>
		<layer id="22" name="sequential_8/sequential_5/model2/expanded_conv_depthwise_relu/Relu6" type="Clamp" version="opset1">
			<data min="0" max="6"/>
			<rt_info>
				<attribute name="fused_names" version="0" value="sequential_8/sequential_5/model2/expanded_conv_depthwise_relu/Relu6"/>
			</rt_info>
			<input>
				<port id="0" precision="FP32">
					<dim>1</dim>
					<dim>16</dim>
					<dim>112</dim>
					<dim>112</dim>
				</port>
			</input>
			<output>
				<port id="1" precision="FP32" names="sequential_8/sequential_5/model2/expanded_conv_depthwise_relu/Relu6:0">
					<dim>1</dim>
					<dim>16</dim>
					<dim>112</dim>
					<dim>112</dim>
				</port>
			</output>
		</layer>
		<layer id="23" name="sequential_8/sequential_5/model2/expanded_conv_project_BN/FusedBatchNormV3/mean/Fused_Mul__copy_compressed" type="Const" version="opset1">
			<data element_type="f16" shape="8, 16, 1, 1" offset="1256" size="256"/>
			<output>
				<port id="0" precision="FP16">
					<dim>8</dim>
					<dim>16</dim>
					<dim>1</dim>
					<dim>1</dim>
				</port>
			</output>
		</layer>
		<layer id="24" name="sequential_8/sequential_5/model2/expanded_conv_project_BN/FusedBatchNormV3/mean/Fused_Mul__copy" type="Convert" version="opset1">
			<data destination_type="f32"/>
			<rt_info>
				<attribute name="decompression" version="0"/>
				<attribute name="fused_names" version="0" value="sequential_8/sequential_5/model2/expanded_conv_project_BN/FusedBatchNormV3/mean/Fused_Mul__copy"/>
			</rt_info>
			<input>
				<port id="0" precision="FP16">
					<dim>8</dim>
					<dim>16</dim>
					<dim>1</dim>
					<dim>1</dim>
				</port>
			</input>
			<output>
				<port id="1" precision="FP32" names="sequential_8/sequential_5/model2/expanded_conv_project/Conv2D/ReadVariableOp:0">
					<dim>8</dim>
					<dim>16</dim>
					<dim>1</dim>
					<dim>1</dim>
				</port>
			</output>
		</layer>
		<layer id="25" name="sequential_8/sequential_5/model2/expanded_conv_project/Conv2D" type="Convolution" version="opset1">
			<data strides="1, 1" dilations="1, 1" pads_begin="0, 0" pads_end="0, 0" auto_pad="same_upper"/>
			<rt_info>
				<attribute name="fused_names" version="0" value="sequential_8/sequential_5/model2/expanded_conv_project/Conv2D"/>
			</rt_info>
			<input>
				<port id="0" precision="FP32">
					<dim>1</dim>
					<dim>16</dim>
					<dim>112</dim>
					<dim>112</dim>
				</port>
				<port id="1" precision="FP32">
					<dim>8</dim>
					<dim>16</dim>
					<dim>1</dim>
					<dim>1</dim>
				</port>
			</input>
			<output>
				<port id="2" precision="FP32">
					<dim>1</dim>
					<dim>8</dim>
					<dim>112</dim>
					<dim>112</dim>
				</port>
			</output>
		</layer>
		<layer id="26" name="data_add_1199512000_compressed" type="Const" version="opset1">
			<data element_type="f16" shape="1, 8, 1, 1" offset="1512" size="16"/>
			<output>
				<port id="0" precision="FP16">
					<dim>1</dim>
					<dim>8</dim>
					<dim>1</dim>
					<dim>1</dim>
				</port>
			</output>
		</layer>
		<layer id="27" name="data_add_1199512000" type="Convert" version="opset1">
			<data destination_type="f32"/>
			<rt_info>
				<attribute name="decompression" version="0"/>
				<attribute name="fused_names" version="0" value="data_add_1199512000"/>
			</rt_info>
			<input>
				<port id="0" precision="FP16">
					<dim>1</dim>
					<dim>8</dim>
					<dim>1</dim>
					<dim>1</dim>
				</port>
			</input>
			<output>
				<port id="1" precision="FP32">
					<dim>1</dim>
					<dim>8</dim>
					<dim>1</dim>
					<dim>1</dim>
				</port>
			</output>
		</layer>
		<layer id="28" name="sequential_8/sequential_5/model2/expanded_conv_project_BN/FusedBatchNormV3/variance/Fused_Add_" type="Add" version="opset1">
			<data auto_broadcast="numpy"/>
			<rt_info>
				<attribute name="fused_names" version="0" value="sequential_8/sequential_5/model2/expanded_conv_project_BN/FusedBatchNormV3/variance/Fused_Add_"/>
			</rt_info>
			<input>
				<port id="0" precision="FP32">
					<dim>1</dim>
					<dim>8</dim>
					<dim>112</dim>
					<dim>112</dim>
				</port>
				<port id="1" precision="FP32">
					<dim>1</dim>
					<dim>8</dim>
					<dim>1</dim>
					<dim>1</dim>
				</port>
			</input>
			<output>
				<port id="2" precision="FP32" names="sequential_8/sequential_5/model2/expanded_conv_project_BN/FusedBatchNormV3:0">
					<dim>1</dim>
					<dim>8</dim>
					<dim>112</dim>
					<dim>112</dim>
				</port>
			</output>
		</layer>
		<layer id="29" name="sequential_8/sequential_5/model2/block_1_expand_BN/FusedBatchNormV3/mean/Fused_Mul__copy_compressed" type="Const" version="opset1">
			<data element_type="f16" shape="48, 8, 1, 1" offset="1528" size="768"/>
			<output>
				<port id="0" precision="FP16">
					<dim>48</dim>
					<dim>8</dim>
					<dim>1</dim>
					<dim>1</dim>
				</port>
			</output>
		</layer>
		<layer id="30" name="sequential_8/sequential_5/model2/block_1_expand_BN/FusedBatchNormV3/mean/Fused_Mul__copy" type="Convert" version="opset1">
			<data destination_type="f32"/>
			<rt_info>
				<attribute name="decompression" version="0"/>
				<attribute name="fused_names" version="0" value="sequential_8/sequential_5/model2/block_1_expand_BN/FusedBatchNormV3/mean/Fused_Mul__copy"/>
			</rt_info>
			<input>
				<port id="0" precision="FP16">
					<dim>48</dim>
					<dim>8</dim>
					<dim>1</dim>
					<dim>1</dim>
				</port>
			</input>
			<output>
				<port id="1" precision="FP32" names="sequential_8/sequential_5/model2/block_1_expand/Conv2D/ReadVariableOp:0">
					<dim>48</dim>
					<dim>8</dim>
					<dim>1</dim>
					<dim>1</dim>
				</port>
			</output>
		</layer>
		<layer id="31" name="sequential_8/sequential_5/model2/block_1_expand/Conv2D" type="Convolution" version="opset1">
			<data strides="1, 1" dilations="1, 1" pads_begin="0, 0" pads_end="0, 0" auto_pad="same_upper"/>
			<rt_info>
				<attribute name="fused_names" version="0" value="sequential_8/sequential_5/model2/block_1_expand/Conv2D"/>
			</rt_info>
			<input>
				<port id="0" precision="FP32">
					<dim>1</dim>
					<dim>8</dim>
					<dim>112</dim>
					<dim>112</dim>
				</port>
				<port id="1" precision="FP32">
					<dim>48</dim>
					<dim>8</dim>
					<dim>1</dim>
					<dim>1</dim>
				</port>
			</input>
			<output>
				<port id="2" precision="FP32">
					<dim>1</dim>
					<dim>48</dim>
					<dim>112</dim>
					<dim>112</dim>
				</port>
			</output>
		</layer>
		<layer id="32" name="data_add_1200312008_compressed" type="Const" version="opset1">
			<data element_type="f16" shape="1, 48, 1, 1" offset="2296" size="96"/>
			<output>
				<port id="0" precision="FP16">
					<dim>1</dim>
					<dim>48</dim>
					<dim>1</dim>
					<dim>1</dim>
				</port>
			</output>
		</layer>
		<layer id="33" name="data_add_1200312008" type="Convert" version="opset1">
			<data destination_type="f32"/>
			<rt_info>
				<attribute name="decompression" version="0"/>
				<attribute name="fused_names" version="0" value="data_add_1200312008"/>
			</rt_info>
			<input>
				<port id="0" precision="FP16">
					<dim>1</dim>
					<dim>48</dim>
					<dim>1</dim>
					<dim>1</dim>
				</port>
			</input>
			<output>
				<port id="1" precision="FP32">
					<dim>1</dim>
					<dim>48</dim>
					<dim>1</dim>
					<dim>1</dim>
				</port>
			</output>
		</layer>
		<layer id="34" name="sequential_8/sequential_5/model2/block_1_expand_BN/FusedBatchNormV3/variance/Fused_Add_" type="Add" version="opset1">
			<data auto_broadcast="numpy"/>
			<rt_info>
				<attribute name="fused_names" version="0" value="sequential_8/sequential_5/model2/block_1_expand_BN/FusedBatchNormV3/variance/Fused_Add_"/>
			</rt_info>
			<input>
				<port id="0" precision="FP32">
					<dim>1</dim>
					<dim>48</dim>
					<dim>112</dim>
					<dim>112</dim>
				</port>
				<port id="1" precision="FP32">
					<dim>1</dim>
					<dim>48</dim>
					<dim>1</dim>
					<dim>1</dim>
				</port>
			</input>
			<output>
				<port id="2" precision="FP32" names="sequential_8/sequential_5/model2/block_1_expand_BN/FusedBatchNormV3:0">
					<dim>1</dim>
					<dim>48</dim>
					<dim>112</dim>
					<dim>112</dim>
				</port>
			</output>
		</layer>
		<layer id="35" name="sequential_8/sequential_5/model2/block_1_expand_relu/Relu6" type="Clamp" version="opset1">
			<data min="0" max="6"/>
			<rt_info>
				<attribute name="fused_names" version="0" value="sequential_8/sequential_5/model2/block_1_expand_relu/Relu6"/>
			</rt_info>
			<input>
				<port id="0" precision="FP32">
					<dim>1</dim>
					<dim>48</dim>
					<dim>112</dim>
					<dim>112</dim>
				</port>
			</input>
			<output>
				<port id="1" precision="FP32" names="sequential_8/sequential_5/model2/block_1_expand_relu/Relu6:0">
					<dim>1</dim>
					<dim>48</dim>
					<dim>112</dim>
					<dim>112</dim>
				</port>
			</output>
		</layer>
		<layer id="36" name="sequential_8/sequential_5/model2/block_1_depthwise_BN/FusedBatchNormV3/mean/Fused_Mul__copy_compressed" type="Const" version="opset1">
			<data element_type="f16" shape="48, 1, 1, 3, 3" offset="2392" size="864"/>
			<output>
				<port id="0" precision="FP16">
					<dim>48</dim>
					<dim>1</dim>
					<dim>1</dim>
					<dim>3</dim>
					<dim>3</dim>
				</port>
			</output>
		</layer>
		<layer id="37" name="sequential_8/sequential_5/model2/block_1_depthwise_BN/FusedBatchNormV3/mean/Fused_Mul__copy" type="Convert" version="opset1">
			<data destination_type="f32"/>
			<rt_info>
				<attribute name="decompression" version="0"/>
				<attribute name="fused_names" version="0" value="sequential_8/sequential_5/model2/block_1_depthwise_BN/FusedBatchNormV3/mean/Fused_Mul__copy"/>
			</rt_info>
			<input>
				<port id="0" precision="FP16">
					<dim>48</dim>
					<dim>1</dim>
					<dim>1</dim>
					<dim>3</dim>
					<dim>3</dim>
				</port>
			</input>
			<output>
				<port id="1" precision="FP32" names="sequential_8/sequential_5/model2/block_1_depthwise/depthwise/ReadVariableOp:0">
					<dim>48</dim>
					<dim>1</dim>
					<dim>1</dim>
					<dim>3</dim>
					<dim>3</dim>
				</port>
			</output>
		</layer>
		<layer id="38" name="sequential_8/sequential_5/model2/block_1_depthwise/depthwise" type="GroupConvolution" version="opset1">
			<data strides="2, 2" pads_begin="0, 0" pads_end="1, 1" dilations="1, 1" auto_pad="explicit"/>
			<rt_info>
				<attribute name="fused_names" version="0" value="sequential_8/sequential_5/model2/block_1_depthwise/depthwise, sequential_8/sequential_5/model2/block_1_pad/Pad"/>
			</rt_info>
			<input>
				<port id="0" precision="FP32">
					<dim>1</dim>
					<dim>48</dim>
					<dim>112</dim>
					<dim>112</dim>
				</port>
				<port id="1" precision="FP32">
					<dim>48</dim>
					<dim>1</dim>
					<dim>1</dim>
					<dim>3</dim>
					<dim>3</dim>
				</port>
			</input>
			<output>
				<port id="2" precision="FP32">
					<dim>1</dim>
					<dim>48</dim>
					<dim>56</dim>
					<dim>56</dim>
				</port>
			</output>
		</layer>
		<layer id="39" name="data_add_1201112016_compressed" type="Const" version="opset1">
			<data element_type="f16" shape="1, 48, 1, 1" offset="3256" size="96"/>
			<output>
				<port id="0" precision="FP16">
					<dim>1</dim>
					<dim>48</dim>
					<dim>1</dim>
					<dim>1</dim>
				</port>
			</output>
		</layer>
		<layer id="40" name="data_add_1201112016" type="Convert" version="opset1">
			<data destination_type="f32"/>
			<rt_info>
				<attribute name="decompression" version="0"/>
				<attribute name="fused_names" version="0" value="data_add_1201112016"/>
			</rt_info>
			<input>
				<port id="0" precision="FP16">
					<dim>1</dim>
					<dim>48</dim>
					<dim>1</dim>
					<dim>1</dim>
				</port>
			</input>
			<output>
				<port id="1" precision="FP32">
					<dim>1</dim>
					<dim>48</dim>
					<dim>1</dim>
					<dim>1</dim>
				</port>
			</output>
		</layer>
		<layer id="41" name="sequential_8/sequential_5/model2/block_1_depthwise_BN/FusedBatchNormV3/variance/Fused_Add_" type="Add" version="opset1">
			<data auto_broadcast="numpy"/>
			<rt_info>
				<attribute name="fused_names" version="0" value="sequential_8/sequential_5/model2/block_1_depthwise_BN/FusedBatchNormV3/variance/Fused_Add_"/>
			</rt_info>
			<input>
				<port id="0" precision="FP32">
					<dim>1</dim>
					<dim>48</dim>
					<dim>56</dim>
					<dim>56</dim>
				</port>
				<port id="1" precision="FP32">
					<dim>1</dim>
					<dim>48</dim>
					<dim>1</dim>
					<dim>1</dim>
				</port>
			</input>
			<output>
				<port id="2" precision="FP32" names="sequential_8/sequential_5/model2/block_1_depthwise_BN/FusedBatchNormV3:0">
					<dim>1</dim>
					<dim>48</dim>
					<dim>56</dim>
					<dim>56</dim>
				</port>
			</output>
		</layer>
		<layer id="42" name="sequential_8/sequential_5/model2/block_1_depthwise_relu/Relu6" type="Clamp" version="opset1">
			<data min="0" max="6"/>
			<rt_info>
				<attribute name="fused_names" version="0" value="sequential_8/sequential_5/model2/block_1_depthwise_relu/Relu6"/>
			</rt_info>
			<input>
				<port id="0" precision="FP32">
					<dim>1</dim>
					<dim>48</dim>
					<dim>56</dim>
					<dim>56</dim>
				</port>
			</input>
			<output>
				<port id="1" precision="FP32" names="sequential_8/sequential_5/model2/block_1_depthwise_relu/Relu6:0">
					<dim>1</dim>
					<dim>48</dim>
					<dim>56</dim>
					<dim>56</dim>
				</port>
			</output>
		</layer>
		<layer id="43" name="sequential_8/sequential_5/model2/block_1_project_BN/FusedBatchNormV3/mean/Fused_Mul__copy_compressed" type="Const" version="opset1">
			<data element_type="f16" shape="8, 48, 1, 1" offset="3352" size="768"/>
			<output>
				<port id="0" precision="FP16">
					<dim>8</dim>
					<dim>48</dim>
					<dim>1</dim>
					<dim>1</dim>
				</port>
			</output>
		</layer>
		<layer id="44" name="sequential_8/sequential_5/model2/block_1_project_BN/FusedBatchNormV3/mean/Fused_Mul__copy" type="Convert" version="opset1">
			<data destination_type="f32"/>
			<rt_info>
				<attribute name="decompression" version="0"/>
				<attribute name="fused_names" version="0" value="sequential_8/sequential_5/model2/block_1_project_BN/FusedBatchNormV3/mean/Fused_Mul__copy"/>
			</rt_info>
			<input>
				<port id="0" precision="FP16">
					<dim>8</dim>
					<dim>48</dim>
					<dim>1</dim>
					<dim>1</dim>
				</port>
			</input>
			<output>
				<port id="1" precision="FP32" names="sequential_8/sequential_5/model2/block_1_project/Conv2D/ReadVariableOp:0">
					<dim>8</dim>
					<dim>48</dim>
					<dim>1</dim>
					<dim>1</dim>
				</port>
			</output>
		</layer>
		<layer id="45" name="sequential_8/sequential_5/model2/block_1_project/Conv2D" type="Convolution" version="opset1">
			<data strides="1, 1" dilations="1, 1" pads_begin="0, 0" pads_end="0, 0" auto_pad="same_upper"/>
			<rt_info>
				<attribute name="fused_names" version="0" value="sequential_8/sequential_5/model2/block_1_project/Conv2D"/>
			</rt_info>
			<input>
				<port id="0" precision="FP32">
					<dim>1</dim>
					<dim>48</dim>
					<dim>56</dim>
					<dim>56</dim>
				</port>
				<port id="1" precision="FP32">
					<dim>8</dim>
					<dim>48</dim>
					<dim>1</dim>
					<dim>1</dim>
				</port>
			</input>
			<output>
				<port id="2" precision="FP32">
					<dim>1</dim>
					<dim>8</dim>
					<dim>56</dim>
					<dim>56</dim>
				</port>
			</output>
		</layer>
		<layer id="46" name="data_add_1201912024_compressed" type="Const" version="opset1">
			<data element_type="f16" shape="1, 8, 1, 1" offset="4120" size="16"/>
			<output>
				<port id="0" precision="FP16">
					<dim>1</dim>
					<dim>8</dim>
					<dim>1</dim>
					<dim>1</dim>
				</port>
			</output>
		</layer>
		<layer id="47" name="data_add_1201912024" type="Convert" version="opset1">
			<data destination_type="f32"/>
			<rt_info>
				<attribute name="decompression" version="0"/>
				<attribute name="fused_names" version="0" value="data_add_1201912024"/>
			</rt_info>
			<input>
				<port id="0" precision="FP16">
					<dim>1</dim>
					<dim>8</dim>
					<dim>1</dim>
					<dim>1</dim>
				</port>
			</input>
			<output>
				<port id="1" precision="FP32">
					<dim>1</dim>
					<dim>8</dim>
					<dim>1</dim>
					<dim>1</dim>
				</port>
			</output>
		</layer>
		<layer id="48" name="sequential_8/sequential_5/model2/block_1_project_BN/FusedBatchNormV3/variance/Fused_Add_" type="Add" version="opset1">
			<data auto_broadcast="numpy"/>
			<rt_info>
				<attribute name="fused_names" version="0" value="sequential_8/sequential_5/model2/block_1_project_BN/FusedBatchNormV3/variance/Fused_Add_"/>
			</rt_info>
			<input>
				<port id="0" precision="FP32">
					<dim>1</dim>
					<dim>8</dim>
					<dim>56</dim>
					<dim>56</dim>
				</port>
				<port id="1" precision="FP32">
					<dim>1</dim>
					<dim>8</dim>
					<dim>1</dim>
					<dim>1</dim>
				</port>
			</input>
			<output>
				<port id="2" precision="FP32" names="sequential_8/sequential_5/model2/block_1_project_BN/FusedBatchNormV3:0">
					<dim>1</dim>
					<dim>8</dim>
					<dim>56</dim>
					<dim>56</dim>
				</port>
			</output>
		</layer>
		<layer id="49" name="sequential_8/sequential_5/model2/block_2_expand_BN/FusedBatchNormV3/mean/Fused_Mul__copy_compressed" type="Const" version="opset1">
			<data element_type="f16" shape="48, 8, 1, 1" offset="4136" size="768"/>
			<output>
				<port id="0" precision="FP16">
					<dim>48</dim>
					<dim>8</dim>
					<dim>1</dim>
					<dim>1</dim>
				</port>
			</output>
		</layer>
		<layer id="50" name="sequential_8/sequential_5/model2/block_2_expand_BN/FusedBatchNormV3/mean/Fused_Mul__copy" type="Convert" version="opset1">
			<data destination_type="f32"/>
			<rt_info>
				<attribute name="decompression" version="0"/>
				<attribute name="fused_names" version="0" value="sequential_8/sequential_5/model2/block_2_expand_BN/FusedBatchNormV3/mean/Fused_Mul__copy"/>
			</rt_info>
			<input>
				<port id="0" precision="FP16">
					<dim>48</dim>
					<dim>8</dim>
					<dim>1</dim>
					<dim>1</dim>
				</port>
			</input>
			<output>
				<port id="1" precision="FP32" names="sequential_8/sequential_5/model2/block_2_expand/Conv2D/ReadVariableOp:0">
					<dim>48</dim>
					<dim>8</dim>
					<dim>1</dim>
					<dim>1</dim>
				</port>
			</output>
		</layer>
		<layer id="51" name="sequential_8/sequential_5/model2/block_2_expand/Conv2D" type="Convolution" version="opset1">
			<data strides="1, 1" dilations="1, 1" pads_begin="0, 0" pads_end="0, 0" auto_pad="same_upper"/>
			<rt_info>
				<attribute name="fused_names" version="0" value="sequential_8/sequential_5/model2/block_2_expand/Conv2D"/>
			</rt_info>
			<input>
				<port id="0" precision="FP32">
					<dim>1</dim>
					<dim>8</dim>
					<dim>56</dim>
					<dim>56</dim>
				</port>
				<port id="1" precision="FP32">
					<dim>48</dim>
					<dim>8</dim>
					<dim>1</dim>
					<dim>1</dim>
				</port>
			</input>
			<output>
				<port id="2" precision="FP32">
					<dim>1</dim>
					<dim>48</dim>
					<dim>56</dim>
					<dim>56</dim>
				</port>
			</output>
		</layer>
		<layer id="52" name="data_add_1202712032_compressed" type="Const" version="opset1">
			<data element_type="f16" shape="1, 48, 1, 1" offset="4904" size="96"/>
			<output>
				<port id="0" precision="FP16">
					<dim>1</dim>
					<dim>48</dim>
					<dim>1</dim>
					<dim>1</dim>
				</port>
			</output>
		</layer>
		<layer id="53" name="data_add_1202712032" type="Convert" version="opset1">
			<data destination_type="f32"/>
			<rt_info>
				<attribute name="decompression" version="0"/>
				<attribute name="fused_names" version="0" value="data_add_1202712032"/>
			</rt_info>
			<input>
				<port id="0" precision="FP16">
					<dim>1</dim>
					<dim>48</dim>
					<dim>1</dim>
					<dim>1</dim>
				</port>
			</input>
			<output>
				<port id="1" precision="FP32">
					<dim>1</dim>
					<dim>48</dim>
					<dim>1</dim>
					<dim>1</dim>
				</port>
			</output>
		</layer>
		<layer id="54" name="sequential_8/sequential_5/model2/block_2_expand_BN/FusedBatchNormV3/variance/Fused_Add_" type="Add" version="opset1">
			<data auto_broadcast="numpy"/>
			<rt_info>
				<attribute name="fused_names" version="0" value="sequential_8/sequential_5/model2/block_2_expand_BN/FusedBatchNormV3/variance/Fused_Add_"/>
			</rt_info>
			<input>
				<port id="0" precision="FP32">
					<dim>1</dim>
					<dim>48</dim>
					<dim>56</dim>
					<dim>56</dim>
				</port>
				<port id="1" precision="FP32">
					<dim>1</dim>
					<dim>48</dim>
					<dim>1</dim>
					<dim>1</dim>
				</port>
			</input>
			<output>
				<port id="2" precision="FP32" names="sequential_8/sequential_5/model2/block_2_expand_BN/FusedBatchNormV3:0">
					<dim>1</dim>
					<dim>48</dim>
					<dim>56</dim>
					<dim>56</dim>
				</port>
			</output>
		</layer>
		<layer id="55" name="sequential_8/sequential_5/model2/block_2_expand_relu/Relu6" type="Clamp" version="opset1">
			<data min="0" max="6"/>
			<rt_info>
				<attribute name="fused_names" version="0" value="sequential_8/sequential_5/model2/block_2_expand_relu/Relu6"/>
			</rt_info>
			<input>
				<port id="0" precision="FP32">
					<dim>1</dim>
					<dim>48</dim>
					<dim>56</dim>
					<dim>56</dim>
				</port>
			</input>
			<output>
				<port id="1" precision="FP32" names="sequential_8/sequential_5/model2/block_2_expand_relu/Relu6:0">
					<dim>1</dim>
					<dim>48</dim>
					<dim>56</dim>
					<dim>56</dim>
				</port>
			</output>
		</layer>
		<layer id="56" name="sequential_8/sequential_5/model2/block_2_depthwise_BN/FusedBatchNormV3/mean/Fused_Mul__copy_compressed" type="Const" version="opset1">
			<data element_type="f16" shape="48, 1, 1, 3, 3" offset="5000" size="864"/>
			<output>
				<port id="0" precision="FP16">
					<dim>48</dim>
					<dim>1</dim>
					<dim>1</dim>
					<dim>3</dim>
					<dim>3</dim>
				</port>
			</output>
		</layer>
		<layer id="57" name="sequential_8/sequential_5/model2/block_2_depthwise_BN/FusedBatchNormV3/mean/Fused_Mul__copy" type="Convert" version="opset1">
			<data destination_type="f32"/>
			<rt_info>
				<attribute name="decompression" version="0"/>
				<attribute name="fused_names" version="0" value="sequential_8/sequential_5/model2/block_2_depthwise_BN/FusedBatchNormV3/mean/Fused_Mul__copy"/>
			</rt_info>
			<input>
				<port id="0" precision="FP16">
					<dim>48</dim>
					<dim>1</dim>
					<dim>1</dim>
					<dim>3</dim>
					<dim>3</dim>
				</port>
			</input>
			<output>
				<port id="1" precision="FP32" names="sequential_8/sequential_5/model2/block_2_depthwise/depthwise/ReadVariableOp:0">
					<dim>48</dim>
					<dim>1</dim>
					<dim>1</dim>
					<dim>3</dim>
					<dim>3</dim>
				</port>
			</output>
		</layer>
		<layer id="58" name="sequential_8/sequential_5/model2/block_2_depthwise/depthwise" type="GroupConvolution" version="opset1">
			<data strides="1, 1" pads_begin="0, 0" pads_end="0, 0" dilations="1, 1" auto_pad="same_upper"/>
			<rt_info>
				<attribute name="fused_names" version="0" value="sequential_8/sequential_5/model2/block_2_depthwise/depthwise"/>
			</rt_info>
			<input>
				<port id="0" precision="FP32">
					<dim>1</dim>
					<dim>48</dim>
					<dim>56</dim>
					<dim>56</dim>
				</port>
				<port id="1" precision="FP32">
					<dim>48</dim>
					<dim>1</dim>
					<dim>1</dim>
					<dim>3</dim>
					<dim>3</dim>
				</port>
			</input>
			<output>
				<port id="2" precision="FP32">
					<dim>1</dim>
					<dim>48</dim>
					<dim>56</dim>
					<dim>56</dim>
				</port>
			</output>
		</layer>
		<layer id="59" name="data_add_1203512040_compressed" type="Const" version="opset1">
			<data element_type="f16" shape="1, 48, 1, 1" offset="5864" size="96"/>
			<output>
				<port id="0" precision="FP16">
					<dim>1</dim>
					<dim>48</dim>
					<dim>1</dim>
					<dim>1</dim>
				</port>
			</output>
		</layer>
		<layer id="60" name="data_add_1203512040" type="Convert" version="opset1">
			<data destination_type="f32"/>
			<rt_info>
				<attribute name="decompression" version="0"/>
				<attribute name="fused_names" version="0" value="data_add_1203512040"/>
			</rt_info>
			<input>
				<port id="0" precision="FP16">
					<dim>1</dim>
					<dim>48</dim>
					<dim>1</dim>
					<dim>1</dim>
				</port>
			</input>
			<output>
				<port id="1" precision="FP32">
					<dim>1</dim>
					<dim>48</dim>
					<dim>1</dim>
					<dim>1</dim>
				</port>
			</output>
		</layer>
		<layer id="61" name="sequential_8/sequential_5/model2/block_2_depthwise_BN/FusedBatchNormV3/variance/Fused_Add_" type="Add" version="opset1">
			<data auto_broadcast="numpy"/>
			<rt_info>
				<attribute name="fused_names" version="0" value="sequential_8/sequential_5/model2/block_2_depthwise_BN/FusedBatchNormV3/variance/Fused_Add_"/>
			</rt_info>
			<input>
				<port id="0" precision="FP32">
					<dim>1</dim>
					<dim>48</dim>
					<dim>56</dim>
					<dim>56</dim>
				</port>
				<port id="1" precision="FP32">
					<dim>1</dim>
					<dim>48</dim>
					<dim>1</dim>
					<dim>1</dim>
				</port>
			</input>
			<output>
				<port id="2" precision="FP32" names="sequential_8/sequential_5/model2/block_2_depthwise_BN/FusedBatchNormV3:0">
					<dim>1</dim>
					<dim>48</dim>
					<dim>56</dim>
					<dim>56</dim>
				</port>
			</output>
		</layer>
		<layer id="62" name="sequential_8/sequential_5/model2/block_2_depthwise_relu/Relu6" type="Clamp" version="opset1">
			<data min="0" max="6"/>
			<rt_info>
				<attribute name="fused_names" version="0" value="sequential_8/sequential_5/model2/block_2_depthwise_relu/Relu6"/>
			</rt_info>
			<input>
				<port id="0" precision="FP32">
					<dim>1</dim>
					<dim>48</dim>
					<dim>56</dim>
					<dim>56</dim>
				</port>
			</input>
			<output>
				<port id="1" precision="FP32" names="sequential_8/sequential_5/model2/block_2_depthwise_relu/Relu6:0">
					<dim>1</dim>
					<dim>48</dim>
					<dim>56</dim>
					<dim>56</dim>
				</port>
			</output>
		</layer>
		<layer id="63" name="sequential_8/sequential_5/model2/block_2_project_BN/FusedBatchNormV3/mean/Fused_Mul__copy_compressed" type="Const" version="opset1">
			<data element_type="f16" shape="8, 48, 1, 1" offset="5960" size="768"/>
			<output>
				<port id="0" precision="FP16">
					<dim>8</dim>
					<dim>48</dim>
					<dim>1</dim>
					<dim>1</dim>
				</port>
			</output>
		</layer>
		<layer id="64" name="sequential_8/sequential_5/model2/block_2_project_BN/FusedBatchNormV3/mean/Fused_Mul__copy" type="Convert" version="opset1">
			<data destination_type="f32"/>
			<rt_info>
				<attribute name="decompression" version="0"/>
				<attribute name="fused_names" version="0" value="sequential_8/sequential_5/model2/block_2_project_BN/FusedBatchNormV3/mean/Fused_Mul__copy"/>
			</rt_info>
			<input>
				<port id="0" precision="FP16">
					<dim>8</dim>
					<dim>48</dim>
					<dim>1</dim>
					<dim>1</dim>
				</port>
			</input>
			<output>
				<port id="1" precision="FP32" names="sequential_8/sequential_5/model2/block_2_project/Conv2D/ReadVariableOp:0">
					<dim>8</dim>
					<dim>48</dim>
					<dim>1</dim>
					<dim>1</dim>
				</port>
			</output>
		</layer>
		<layer id="65" name="sequential_8/sequential_5/model2/block_2_project/Conv2D" type="Convolution" version="opset1">
			<data strides="1, 1" dilations="1, 1" pads_begin="0, 0" pads_end="0, 0" auto_pad="same_upper"/>
			<rt_info>
				<attribute name="fused_names" version="0" value="sequential_8/sequential_5/model2/block_2_project/Conv2D"/>
			</rt_info>
			<input>
				<port id="0" precision="FP32">
					<dim>1</dim>
					<dim>48</dim>
					<dim>56</dim>
					<dim>56</dim>
				</port>
				<port id="1" precision="FP32">
					<dim>8</dim>
					<dim>48</dim>
					<dim>1</dim>
					<dim>1</dim>
				</port>
			</input>
			<output>
				<port id="2" precision="FP32">
					<dim>1</dim>
					<dim>8</dim>
					<dim>56</dim>
					<dim>56</dim>
				</port>
			</output>
		</layer>
		<layer id="66" name="data_add_1204312048_compressed" type="Const" version="opset1">
			<data element_type="f16" shape="1, 8, 1, 1" offset="6728" size="16"/>
			<output>
				<port id="0" precision="FP16">
					<dim>1</dim>
					<dim>8</dim>
					<dim>1</dim>
					<dim>1</dim>
				</port>
			</output>
		</layer>
		<layer id="67" name="data_add_1204312048" type="Convert" version="opset1">
			<data destination_type="f32"/>
			<rt_info>
				<attribute name="decompression" version="0"/>
				<attribute name="fused_names" version="0" value="data_add_1204312048"/>
			</rt_info>
			<input>
				<port id="0" precision="FP16">
					<dim>1</dim>
					<dim>8</dim>
					<dim>1</dim>
					<dim>1</dim>
				</port>
			</input>
			<output>
				<port id="1" precision="FP32">
					<dim>1</dim>
					<dim>8</dim>
					<dim>1</dim>
					<dim>1</dim>
				</port>
			</output>
		</layer>
		<layer id="68" name="sequential_8/sequential_5/model2/block_2_project_BN/FusedBatchNormV3/variance/Fused_Add_" type="Add" version="opset1">
			<data auto_broadcast="numpy"/>
			<rt_info>
				<attribute name="fused_names" version="0" value="sequential_8/sequential_5/model2/block_2_project_BN/FusedBatchNormV3/variance/Fused_Add_"/>
			</rt_info>
			<input>
				<port id="0" precision="FP32">
					<dim>1</dim>
					<dim>8</dim>
					<dim>56</dim>
					<dim>56</dim>
				</port>
				<port id="1" precision="FP32">
					<dim>1</dim>
					<dim>8</dim>
					<dim>1</dim>
					<dim>1</dim>
				</port>
			</input>
			<output>
				<port id="2" precision="FP32" names="sequential_8/sequential_5/model2/block_2_project_BN/FusedBatchNormV3:0">
					<dim>1</dim>
					<dim>8</dim>
					<dim>56</dim>
					<dim>56</dim>
				</port>
			</output>
		</layer>
		<layer id="69" name="sequential_8/sequential_5/model2/block_2_add/add" type="Add" version="opset1">
			<data auto_broadcast="numpy"/>
			<rt_info>
				<attribute name="fused_names" version="0" value="sequential_8/sequential_5/model2/block_2_add/add"/>
			</rt_info>
			<input>
				<port id="0" precision="FP32">
					<dim>1</dim>
					<dim>8</dim>
					<dim>56</dim>
					<dim>56</dim>
				</port>
				<port id="1" precision="FP32">
					<dim>1</dim>
					<dim>8</dim>
					<dim>56</dim>
					<dim>56</dim>
				</port>
			</input>
			<output>
				<port id="2" precision="FP32" names="sequential_8/sequential_5/model2/block_2_add/add:0">
					<dim>1</dim>
					<dim>8</dim>
					<dim>56</dim>
					<dim>56</dim>
				</port>
			</output>
		</layer>
		<layer id="70" name="sequential_8/sequential_5/model2/block_3_expand_BN/FusedBatchNormV3/mean/Fused_Mul__copy_compressed" type="Const" version="opset1">
			<data element_type="f16" shape="48, 8, 1, 1" offset="6744" size="768"/>
			<output>
				<port id="0" precision="FP16">
					<dim>48</dim>
					<dim>8</dim>
					<dim>1</dim>
					<dim>1</dim>
				</port>
			</output>
		</layer>
		<layer id="71" name="sequential_8/sequential_5/model2/block_3_expand_BN/FusedBatchNormV3/mean/Fused_Mul__copy" type="Convert" version="opset1">
			<data destination_type="f32"/>
			<rt_info>
				<attribute name="decompression" version="0"/>
				<attribute name="fused_names" version="0" value="sequential_8/sequential_5/model2/block_3_expand_BN/FusedBatchNormV3/mean/Fused_Mul__copy"/>
			</rt_info>
			<input>
				<port id="0" precision="FP16">
					<dim>48</dim>
					<dim>8</dim>
					<dim>1</dim>
					<dim>1</dim>
				</port>
			</input>
			<output>
				<port id="1" precision="FP32" names="sequential_8/sequential_5/model2/block_3_expand/Conv2D/ReadVariableOp:0">
					<dim>48</dim>
					<dim>8</dim>
					<dim>1</dim>
					<dim>1</dim>
				</port>
			</output>
		</layer>
		<layer id="72" name="sequential_8/sequential_5/model2/block_3_expand/Conv2D" type="Convolution" version="opset1">
			<data strides="1, 1" dilations="1, 1" pads_begin="0, 0" pads_end="0, 0" auto_pad="same_upper"/>
			<rt_info>
				<attribute name="fused_names" version="0" value="sequential_8/sequential_5/model2/block_3_expand/Conv2D"/>
			</rt_info>
			<input>
				<port id="0" precision="FP32">
					<dim>1</dim>
					<dim>8</dim>
					<dim>56</dim>
					<dim>56</dim>
				</port>
				<port id="1" precision="FP32">
					<dim>48</dim>
					<dim>8</dim>
					<dim>1</dim>
					<dim>1</dim>
				</port>
			</input>
			<output>
				<port id="2" precision="FP32">
					<dim>1</dim>
					<dim>48</dim>
					<dim>56</dim>
					<dim>56</dim>
				</port>
			</output>
		</layer>
		<layer id="73" name="data_add_1205112056_compressed" type="Const" version="opset1">
			<data element_type="f16" shape="1, 48, 1, 1" offset="7512" size="96"/>
			<output>
				<port id="0" precision="FP16">
					<dim>1</dim>
					<dim>48</dim>
					<dim>1</dim>
					<dim>1</dim>
				</port>
			</output>
		</layer>
		<layer id="74" name="data_add_1205112056" type="Convert" version="opset1">
			<data destination_type="f32"/>
			<rt_info>
				<attribute name="decompression" version="0"/>
				<attribute name="fused_names" version="0" value="data_add_1205112056"/>
			</rt_info>
			<input>
				<port id="0" precision="FP16">
					<dim>1</dim>
					<dim>48</dim>
					<dim>1</dim>
					<dim>1</dim>
				</port>
			</input>
			<output>
				<port id="1" precision="FP32">
					<dim>1</dim>
					<dim>48</dim>
					<dim>1</dim>
					<dim>1</dim>
				</port>
			</output>
		</layer>
		<layer id="75" name="sequential_8/sequential_5/model2/block_3_expand_BN/FusedBatchNormV3/variance/Fused_Add_" type="Add" version="opset1">
			<data auto_broadcast="numpy"/>
			<rt_info>
				<attribute name="fused_names" version="0" value="sequential_8/sequential_5/model2/block_3_expand_BN/FusedBatchNormV3/variance/Fused_Add_"/>
			</rt_info>
			<input>
				<port id="0" precision="FP32">
					<dim>1</dim>
					<dim>48</dim>
					<dim>56</dim>
					<dim>56</dim>
				</port>
				<port id="1" precision="FP32">
					<dim>1</dim>
					<dim>48</dim>
					<dim>1</dim>
					<dim>1</dim>
				</port>
			</input>
			<output>
				<port id="2" precision="FP32" names="sequential_8/sequential_5/model2/block_3_expand_BN/FusedBatchNormV3:0">
					<dim>1</dim>
					<dim>48</dim>
					<dim>56</dim>
					<dim>56</dim>
				</port>
			</output>
		</layer>
		<layer id="76" name="sequential_8/sequential_5/model2/block_3_expand_relu/Relu6" type="Clamp" version="opset1">
			<data min="0" max="6"/>
			<rt_info>
				<attribute name="fused_names" version="0" value="sequential_8/sequential_5/model2/block_3_expand_relu/Relu6"/>
			</rt_info>
			<input>
				<port id="0" precision="FP32">
					<dim>1</dim>
					<dim>48</dim>
					<dim>56</dim>
					<dim>56</dim>
				</port>
			</input>
			<output>
				<port id="1" precision="FP32" names="sequential_8/sequential_5/model2/block_3_expand_relu/Relu6:0">
					<dim>1</dim>
					<dim>48</dim>
					<dim>56</dim>
					<dim>56</dim>
				</port>
			</output>
		</layer>
		<layer id="77" name="sequential_8/sequential_5/model2/block_3_depthwise_BN/FusedBatchNormV3/mean/Fused_Mul__copy_compressed" type="Const" version="opset1">
			<data element_type="f16" shape="48, 1, 1, 3, 3" offset="7608" size="864"/>
			<output>
				<port id="0" precision="FP16">
					<dim>48</dim>
					<dim>1</dim>
					<dim>1</dim>
					<dim>3</dim>
					<dim>3</dim>
				</port>
			</output>
		</layer>
		<layer id="78" name="sequential_8/sequential_5/model2/block_3_depthwise_BN/FusedBatchNormV3/mean/Fused_Mul__copy" type="Convert" version="opset1">
			<data destination_type="f32"/>
			<rt_info>
				<attribute name="decompression" version="0"/>
				<attribute name="fused_names" version="0" value="sequential_8/sequential_5/model2/block_3_depthwise_BN/FusedBatchNormV3/mean/Fused_Mul__copy"/>
			</rt_info>
			<input>
				<port id="0" precision="FP16">
					<dim>48</dim>
					<dim>1</dim>
					<dim>1</dim>
					<dim>3</dim>
					<dim>3</dim>
				</port>
			</input>
			<output>
				<port id="1" precision="FP32" names="sequential_8/sequential_5/model2/block_3_depthwise/depthwise/ReadVariableOp:0">
					<dim>48</dim>
					<dim>1</dim>
					<dim>1</dim>
					<dim>3</dim>
					<dim>3</dim>
				</port>
			</output>
		</layer>
		<layer id="79" name="sequential_8/sequential_5/model2/block_3_depthwise/depthwise" type="GroupConvolution" version="opset1">
			<data strides="2, 2" pads_begin="0, 0" pads_end="1, 1" dilations="1, 1" auto_pad="explicit"/>
			<rt_info>
				<attribute name="fused_names" version="0" value="sequential_8/sequential_5/model2/block_3_depthwise/depthwise, sequential_8/sequential_5/model2/block_3_pad/Pad"/>
			</rt_info>
			<input>
				<port id="0" precision="FP32">
					<dim>1</dim>
					<dim>48</dim>
					<dim>56</dim>
					<dim>56</dim>
				</port>
				<port id="1" precision="FP32">
					<dim>48</dim>
					<dim>1</dim>
					<dim>1</dim>
					<dim>3</dim>
					<dim>3</dim>
				</port>
			</input>
			<output>
				<port id="2" precision="FP32">
					<dim>1</dim>
					<dim>48</dim>
					<dim>28</dim>
					<dim>28</dim>
				</port>
			</output>
		</layer>
		<layer id="80" name="data_add_1205912064_compressed" type="Const" version="opset1">
			<data element_type="f16" shape="1, 48, 1, 1" offset="8472" size="96"/>
			<output>
				<port id="0" precision="FP16">
					<dim>1</dim>
					<dim>48</dim>
					<dim>1</dim>
					<dim>1</dim>
				</port>
			</output>
		</layer>
		<layer id="81" name="data_add_1205912064" type="Convert" version="opset1">
			<data destination_type="f32"/>
			<rt_info>
				<attribute name="decompression" version="0"/>
				<attribute name="fused_names" version="0" value="data_add_1205912064"/>
			</rt_info>
			<input>
				<port id="0" precision="FP16">
					<dim>1</dim>
					<dim>48</dim>
					<dim>1</dim>
					<dim>1</dim>
				</port>
			</input>
			<output>
				<port id="1" precision="FP32">
					<dim>1</dim>
					<dim>48</dim>
					<dim>1</dim>
					<dim>1</dim>
				</port>
			</output>
		</layer>
		<layer id="82" name="sequential_8/sequential_5/model2/block_3_depthwise_BN/FusedBatchNormV3/variance/Fused_Add_" type="Add" version="opset1">
			<data auto_broadcast="numpy"/>
			<rt_info>
				<attribute name="fused_names" version="0" value="sequential_8/sequential_5/model2/block_3_depthwise_BN/FusedBatchNormV3/variance/Fused_Add_"/>
			</rt_info>
			<input>
				<port id="0" precision="FP32">
					<dim>1</dim>
					<dim>48</dim>
					<dim>28</dim>
					<dim>28</dim>
				</port>
				<port id="1" precision="FP32">
					<dim>1</dim>
					<dim>48</dim>
					<dim>1</dim>
					<dim>1</dim>
				</port>
			</input>
			<output>
				<port id="2" precision="FP32" names="sequential_8/sequential_5/model2/block_3_depthwise_BN/FusedBatchNormV3:0">
					<dim>1</dim>
					<dim>48</dim>
					<dim>28</dim>
					<dim>28</dim>
				</port>
			</output>
		</layer>
		<layer id="83" name="sequential_8/sequential_5/model2/block_3_depthwise_relu/Relu6" type="Clamp" version="opset1">
			<data min="0" max="6"/>
			<rt_info>
				<attribute name="fused_names" version="0" value="sequential_8/sequential_5/model2/block_3_depthwise_relu/Relu6"/>
			</rt_info>
			<input>
				<port id="0" precision="FP32">
					<dim>1</dim>
					<dim>48</dim>
					<dim>28</dim>
					<dim>28</dim>
				</port>
			</input>
			<output>
				<port id="1" precision="FP32" names="sequential_8/sequential_5/model2/block_3_depthwise_relu/Relu6:0">
					<dim>1</dim>
					<dim>48</dim>
					<dim>28</dim>
					<dim>28</dim>
				</port>
			</output>
		</layer>
		<layer id="84" name="sequential_8/sequential_5/model2/block_3_project_BN/FusedBatchNormV3/mean/Fused_Mul__copy_compressed" type="Const" version="opset1">
			<data element_type="f16" shape="16, 48, 1, 1" offset="8568" size="1536"/>
			<output>
				<port id="0" precision="FP16">
					<dim>16</dim>
					<dim>48</dim>
					<dim>1</dim>
					<dim>1</dim>
				</port>
			</output>
		</layer>
		<layer id="85" name="sequential_8/sequential_5/model2/block_3_project_BN/FusedBatchNormV3/mean/Fused_Mul__copy" type="Convert" version="opset1">
			<data destination_type="f32"/>
			<rt_info>
				<attribute name="decompression" version="0"/>
				<attribute name="fused_names" version="0" value="sequential_8/sequential_5/model2/block_3_project_BN/FusedBatchNormV3/mean/Fused_Mul__copy"/>
			</rt_info>
			<input>
				<port id="0" precision="FP16">
					<dim>16</dim>
					<dim>48</dim>
					<dim>1</dim>
					<dim>1</dim>
				</port>
			</input>
			<output>
				<port id="1" precision="FP32" names="sequential_8/sequential_5/model2/block_3_project/Conv2D/ReadVariableOp:0">
					<dim>16</dim>
					<dim>48</dim>
					<dim>1</dim>
					<dim>1</dim>
				</port>
			</output>
		</layer>
		<layer id="86" name="sequential_8/sequential_5/model2/block_3_project/Conv2D" type="Convolution" version="opset1">
			<data strides="1, 1" dilations="1, 1" pads_begin="0, 0" pads_end="0, 0" auto_pad="same_upper"/>
			<rt_info>
				<attribute name="fused_names" version="0" value="sequential_8/sequential_5/model2/block_3_project/Conv2D"/>
			</rt_info>
			<input>
				<port id="0" precision="FP32">
					<dim>1</dim>
					<dim>48</dim>
					<dim>28</dim>
					<dim>28</dim>
				</port>
				<port id="1" precision="FP32">
					<dim>16</dim>
					<dim>48</dim>
					<dim>1</dim>
					<dim>1</dim>
				</port>
			</input>
			<output>
				<port id="2" precision="FP32">
					<dim>1</dim>
					<dim>16</dim>
					<dim>28</dim>
					<dim>28</dim>
				</port>
			</output>
		</layer>
		<layer id="87" name="data_add_1206712072_compressed" type="Const" version="opset1">
			<data element_type="f16" shape="1, 16, 1, 1" offset="10104" size="32"/>
			<output>
				<port id="0" precision="FP16">
					<dim>1</dim>
					<dim>16</dim>
					<dim>1</dim>
					<dim>1</dim>
				</port>
			</output>
		</layer>
		<layer id="88" name="data_add_1206712072" type="Convert" version="opset1">
			<data destination_type="f32"/>
			<rt_info>
				<attribute name="decompression" version="0"/>
				<attribute name="fused_names" version="0" value="data_add_1206712072"/>
			</rt_info>
			<input>
				<port id="0" precision="FP16">
					<dim>1</dim>
					<dim>16</dim>
					<dim>1</dim>
					<dim>1</dim>
				</port>
			</input>
			<output>
				<port id="1" precision="FP32">
					<dim>1</dim>
					<dim>16</dim>
					<dim>1</dim>
					<dim>1</dim>
				</port>
			</output>
		</layer>
		<layer id="89" name="sequential_8/sequential_5/model2/block_3_project_BN/FusedBatchNormV3/variance/Fused_Add_" type="Add" version="opset1">
			<data auto_broadcast="numpy"/>
			<rt_info>
				<attribute name="fused_names" version="0" value="sequential_8/sequential_5/model2/block_3_project_BN/FusedBatchNormV3/variance/Fused_Add_"/>
			</rt_info>
			<input>
				<port id="0" precision="FP32">
					<dim>1</dim>
					<dim>16</dim>
					<dim>28</dim>
					<dim>28</dim>
				</port>
				<port id="1" precision="FP32">
					<dim>1</dim>
					<dim>16</dim>
					<dim>1</dim>
					<dim>1</dim>
				</port>
			</input>
			<output>
				<port id="2" precision="FP32" names="sequential_8/sequential_5/model2/block_3_project_BN/FusedBatchNormV3:0">
					<dim>1</dim>
					<dim>16</dim>
					<dim>28</dim>
					<dim>28</dim>
				</port>
			</output>
		</layer>
		<layer id="90" name="sequential_8/sequential_5/model2/block_4_expand_BN/FusedBatchNormV3/mean/Fused_Mul__copy_compressed" type="Const" version="opset1">
			<data element_type="f16" shape="96, 16, 1, 1" offset="10136" size="3072"/>
			<output>
				<port id="0" precision="FP16">
					<dim>96</dim>
					<dim>16</dim>
					<dim>1</dim>
					<dim>1</dim>
				</port>
			</output>
		</layer>
		<layer id="91" name="sequential_8/sequential_5/model2/block_4_expand_BN/FusedBatchNormV3/mean/Fused_Mul__copy" type="Convert" version="opset1">
			<data destination_type="f32"/>
			<rt_info>
				<attribute name="decompression" version="0"/>
				<attribute name="fused_names" version="0" value="sequential_8/sequential_5/model2/block_4_expand_BN/FusedBatchNormV3/mean/Fused_Mul__copy"/>
			</rt_info>
			<input>
				<port id="0" precision="FP16">
					<dim>96</dim>
					<dim>16</dim>
					<dim>1</dim>
					<dim>1</dim>
				</port>
			</input>
			<output>
				<port id="1" precision="FP32" names="sequential_8/sequential_5/model2/block_4_expand/Conv2D/ReadVariableOp:0">
					<dim>96</dim>
					<dim>16</dim>
					<dim>1</dim>
					<dim>1</dim>
				</port>
			</output>
		</layer>
		<layer id="92" name="sequential_8/sequential_5/model2/block_4_expand/Conv2D" type="Convolution" version="opset1">
			<data strides="1, 1" dilations="1, 1" pads_begin="0, 0" pads_end="0, 0" auto_pad="same_upper"/>
			<rt_info>
				<attribute name="fused_names" version="0" value="sequential_8/sequential_5/model2/block_4_expand/Conv2D"/>
			</rt_info>
			<input>
				<port id="0" precision="FP32">
					<dim>1</dim>
					<dim>16</dim>
					<dim>28</dim>
					<dim>28</dim>
				</port>
				<port id="1" precision="FP32">
					<dim>96</dim>
					<dim>16</dim>
					<dim>1</dim>
					<dim>1</dim>
				</port>
			</input>
			<output>
				<port id="2" precision="FP32">
					<dim>1</dim>
					<dim>96</dim>
					<dim>28</dim>
					<dim>28</dim>
				</port>
			</output>
		</layer>
		<layer id="93" name="data_add_1207512080_compressed" type="Const" version="opset1">
			<data element_type="f16" shape="1, 96, 1, 1" offset="13208" size="192"/>
			<output>
				<port id="0" precision="FP16">
					<dim>1</dim>
					<dim>96</dim>
					<dim>1</dim>
					<dim>1</dim>
				</port>
			</output>
		</layer>
		<layer id="94" name="data_add_1207512080" type="Convert" version="opset1">
			<data destination_type="f32"/>
			<rt_info>
				<attribute name="decompression" version="0"/>
				<attribute name="fused_names" version="0" value="data_add_1207512080"/>
			</rt_info>
			<input>
				<port id="0" precision="FP16">
					<dim>1</dim>
					<dim>96</dim>
					<dim>1</dim>
					<dim>1</dim>
				</port>
			</input>
			<output>
				<port id="1" precision="FP32">
					<dim>1</dim>
					<dim>96</dim>
					<dim>1</dim>
					<dim>1</dim>
				</port>
			</output>
		</layer>
		<layer id="95" name="sequential_8/sequential_5/model2/block_4_expand_BN/FusedBatchNormV3/variance/Fused_Add_" type="Add" version="opset1">
			<data auto_broadcast="numpy"/>
			<rt_info>
				<attribute name="fused_names" version="0" value="sequential_8/sequential_5/model2/block_4_expand_BN/FusedBatchNormV3/variance/Fused_Add_"/>
			</rt_info>
			<input>
				<port id="0" precision="FP32">
					<dim>1</dim>
					<dim>96</dim>
					<dim>28</dim>
					<dim>28</dim>
				</port>
				<port id="1" precision="FP32">
					<dim>1</dim>
					<dim>96</dim>
					<dim>1</dim>
					<dim>1</dim>
				</port>
			</input>
			<output>
				<port id="2" precision="FP32" names="sequential_8/sequential_5/model2/block_4_expand_BN/FusedBatchNormV3:0">
					<dim>1</dim>
					<dim>96</dim>
					<dim>28</dim>
					<dim>28</dim>
				</port>
			</output>
		</layer>
		<layer id="96" name="sequential_8/sequential_5/model2/block_4_expand_relu/Relu6" type="Clamp" version="opset1">
			<data min="0" max="6"/>
			<rt_info>
				<attribute name="fused_names" version="0" value="sequential_8/sequential_5/model2/block_4_expand_relu/Relu6"/>
			</rt_info>
			<input>
				<port id="0" precision="FP32">
					<dim>1</dim>
					<dim>96</dim>
					<dim>28</dim>
					<dim>28</dim>
				</port>
			</input>
			<output>
				<port id="1" precision="FP32" names="sequential_8/sequential_5/model2/block_4_expand_relu/Relu6:0">
					<dim>1</dim>
					<dim>96</dim>
					<dim>28</dim>
					<dim>28</dim>
				</port>
			</output>
		</layer>
		<layer id="97" name="sequential_8/sequential_5/model2/block_4_depthwise_BN/FusedBatchNormV3/mean/Fused_Mul__copy_compressed" type="Const" version="opset1">
			<data element_type="f16" shape="96, 1, 1, 3, 3" offset="13400" size="1728"/>
			<output>
				<port id="0" precision="FP16">
					<dim>96</dim>
					<dim>1</dim>
					<dim>1</dim>
					<dim>3</dim>
					<dim>3</dim>
				</port>
			</output>
		</layer>
		<layer id="98" name="sequential_8/sequential_5/model2/block_4_depthwise_BN/FusedBatchNormV3/mean/Fused_Mul__copy" type="Convert" version="opset1">
			<data destination_type="f32"/>
			<rt_info>
				<attribute name="decompression" version="0"/>
				<attribute name="fused_names" version="0" value="sequential_8/sequential_5/model2/block_4_depthwise_BN/FusedBatchNormV3/mean/Fused_Mul__copy"/>
			</rt_info>
			<input>
				<port id="0" precision="FP16">
					<dim>96</dim>
					<dim>1</dim>
					<dim>1</dim>
					<dim>3</dim>
					<dim>3</dim>
				</port>
			</input>
			<output>
				<port id="1" precision="FP32" names="sequential_8/sequential_5/model2/block_4_depthwise/depthwise/ReadVariableOp:0">
					<dim>96</dim>
					<dim>1</dim>
					<dim>1</dim>
					<dim>3</dim>
					<dim>3</dim>
				</port>
			</output>
		</layer>
		<layer id="99" name="sequential_8/sequential_5/model2/block_4_depthwise/depthwise" type="GroupConvolution" version="opset1">
			<data strides="1, 1" pads_begin="0, 0" pads_end="0, 0" dilations="1, 1" auto_pad="same_upper"/>
			<rt_info>
				<attribute name="fused_names" version="0" value="sequential_8/sequential_5/model2/block_4_depthwise/depthwise"/>
			</rt_info>
			<input>
				<port id="0" precision="FP32">
					<dim>1</dim>
					<dim>96</dim>
					<dim>28</dim>
					<dim>28</dim>
				</port>
				<port id="1" precision="FP32">
					<dim>96</dim>
					<dim>1</dim>
					<dim>1</dim>
					<dim>3</dim>
					<dim>3</dim>
				</port>
			</input>
			<output>
				<port id="2" precision="FP32">
					<dim>1</dim>
					<dim>96</dim>
					<dim>28</dim>
					<dim>28</dim>
				</port>
			</output>
		</layer>
		<layer id="100" name="data_add_1208312088_compressed" type="Const" version="opset1">
			<data element_type="f16" shape="1, 96, 1, 1" offset="15128" size="192"/>
			<output>
				<port id="0" precision="FP16">
					<dim>1</dim>
					<dim>96</dim>
					<dim>1</dim>
					<dim>1</dim>
				</port>
			</output>
		</layer>
		<layer id="101" name="data_add_1208312088" type="Convert" version="opset1">
			<data destination_type="f32"/>
			<rt_info>
				<attribute name="decompression" version="0"/>
				<attribute name="fused_names" version="0" value="data_add_1208312088"/>
			</rt_info>
			<input>
				<port id="0" precision="FP16">
					<dim>1</dim>
					<dim>96</dim>
					<dim>1</dim>
					<dim>1</dim>
				</port>
			</input>
			<output>
				<port id="1" precision="FP32">
					<dim>1</dim>
					<dim>96</dim>
					<dim>1</dim>
					<dim>1</dim>
				</port>
			</output>
		</layer>
		<layer id="102" name="sequential_8/sequential_5/model2/block_4_depthwise_BN/FusedBatchNormV3/variance/Fused_Add_" type="Add" version="opset1">
			<data auto_broadcast="numpy"/>
			<rt_info>
				<attribute name="fused_names" version="0" value="sequential_8/sequential_5/model2/block_4_depthwise_BN/FusedBatchNormV3/variance/Fused_Add_"/>
			</rt_info>
			<input>
				<port id="0" precision="FP32">
					<dim>1</dim>
					<dim>96</dim>
					<dim>28</dim>
					<dim>28</dim>
				</port>
				<port id="1" precision="FP32">
					<dim>1</dim>
					<dim>96</dim>
					<dim>1</dim>
					<dim>1</dim>
				</port>
			</input>
			<output>
				<port id="2" precision="FP32" names="sequential_8/sequential_5/model2/block_4_depthwise_BN/FusedBatchNormV3:0">
					<dim>1</dim>
					<dim>96</dim>
					<dim>28</dim>
					<dim>28</dim>
				</port>
			</output>
		</layer>
		<layer id="103" name="sequential_8/sequential_5/model2/block_4_depthwise_relu/Relu6" type="Clamp" version="opset1">
			<data min="0" max="6"/>
			<rt_info>
				<attribute name="fused_names" version="0" value="sequential_8/sequential_5/model2/block_4_depthwise_relu/Relu6"/>
			</rt_info>
			<input>
				<port id="0" precision="FP32">
					<dim>1</dim>
					<dim>96</dim>
					<dim>28</dim>
					<dim>28</dim>
				</port>
			</input>
			<output>
				<port id="1" precision="FP32" names="sequential_8/sequential_5/model2/block_4_depthwise_relu/Relu6:0">
					<dim>1</dim>
					<dim>96</dim>
					<dim>28</dim>
					<dim>28</dim>
				</port>
			</output>
		</layer>
		<layer id="104" name="sequential_8/sequential_5/model2/block_4_project_BN/FusedBatchNormV3/mean/Fused_Mul__copy_compressed" type="Const" version="opset1">
			<data element_type="f16" shape="16, 96, 1, 1" offset="15320" size="3072"/>
			<output>
				<port id="0" precision="FP16">
					<dim>16</dim>
					<dim>96</dim>
					<dim>1</dim>
					<dim>1</dim>
				</port>
			</output>
		</layer>
		<layer id="105" name="sequential_8/sequential_5/model2/block_4_project_BN/FusedBatchNormV3/mean/Fused_Mul__copy" type="Convert" version="opset1">
			<data destination_type="f32"/>
			<rt_info>
				<attribute name="decompression" version="0"/>
				<attribute name="fused_names" version="0" value="sequential_8/sequential_5/model2/block_4_project_BN/FusedBatchNormV3/mean/Fused_Mul__copy"/>
			</rt_info>
			<input>
				<port id="0" precision="FP16">
					<dim>16</dim>
					<dim>96</dim>
					<dim>1</dim>
					<dim>1</dim>
				</port>
			</input>
			<output>
				<port id="1" precision="FP32" names="sequential_8/sequential_5/model2/block_4_project/Conv2D/ReadVariableOp:0">
					<dim>16</dim>
					<dim>96</dim>
					<dim>1</dim>
					<dim>1</dim>
				</port>
			</output>
		</layer>
		<layer id="106" name="sequential_8/sequential_5/model2/block_4_project/Conv2D" type="Convolution" version="opset1">
			<data strides="1, 1" dilations="1, 1" pads_begin="0, 0" pads_end="0, 0" auto_pad="same_upper"/>
			<rt_info>
				<attribute name="fused_names" version="0" value="sequential_8/sequential_5/model2/block_4_project/Conv2D"/>
			</rt_info>
			<input>
				<port id="0" precision="FP32">
					<dim>1</dim>
					<dim>96</dim>
					<dim>28</dim>
					<dim>28</dim>
				</port>
				<port id="1" precision="FP32">
					<dim>16</dim>
					<dim>96</dim>
					<dim>1</dim>
					<dim>1</dim>
				</port>
			</input>
			<output>
				<port id="2" precision="FP32">
					<dim>1</dim>
					<dim>16</dim>
					<dim>28</dim>
					<dim>28</dim>
				</port>
			</output>
		</layer>
		<layer id="107" name="data_add_1209112096_compressed" type="Const" version="opset1">
			<data element_type="f16" shape="1, 16, 1, 1" offset="18392" size="32"/>
			<output>
				<port id="0" precision="FP16">
					<dim>1</dim>
					<dim>16</dim>
					<dim>1</dim>
					<dim>1</dim>
				</port>
			</output>
		</layer>
		<layer id="108" name="data_add_1209112096" type="Convert" version="opset1">
			<data destination_type="f32"/>
			<rt_info>
				<attribute name="decompression" version="0"/>
				<attribute name="fused_names" version="0" value="data_add_1209112096"/>
			</rt_info>
			<input>
				<port id="0" precision="FP16">
					<dim>1</dim>
					<dim>16</dim>
					<dim>1</dim>
					<dim>1</dim>
				</port>
			</input>
			<output>
				<port id="1" precision="FP32">
					<dim>1</dim>
					<dim>16</dim>
					<dim>1</dim>
					<dim>1</dim>
				</port>
			</output>
		</layer>
		<layer id="109" name="sequential_8/sequential_5/model2/block_4_project_BN/FusedBatchNormV3/variance/Fused_Add_" type="Add" version="opset1">
			<data auto_broadcast="numpy"/>
			<rt_info>
				<attribute name="fused_names" version="0" value="sequential_8/sequential_5/model2/block_4_project_BN/FusedBatchNormV3/variance/Fused_Add_"/>
			</rt_info>
			<input>
				<port id="0" precision="FP32">
					<dim>1</dim>
					<dim>16</dim>
					<dim>28</dim>
					<dim>28</dim>
				</port>
				<port id="1" precision="FP32">
					<dim>1</dim>
					<dim>16</dim>
					<dim>1</dim>
					<dim>1</dim>
				</port>
			</input>
			<output>
				<port id="2" precision="FP32" names="sequential_8/sequential_5/model2/block_4_project_BN/FusedBatchNormV3:0">
					<dim>1</dim>
					<dim>16</dim>
					<dim>28</dim>
					<dim>28</dim>
				</port>
			</output>
		</layer>
		<layer id="110" name="sequential_8/sequential_5/model2/block_4_add/add" type="Add" version="opset1">
			<data auto_broadcast="numpy"/>
			<rt_info>
				<attribute name="fused_names" version="0" value="sequential_8/sequential_5/model2/block_4_add/add"/>
			</rt_info>
			<input>
				<port id="0" precision="FP32">
					<dim>1</dim>
					<dim>16</dim>
					<dim>28</dim>
					<dim>28</dim>
				</port>
				<port id="1" precision="FP32">
					<dim>1</dim>
					<dim>16</dim>
					<dim>28</dim>
					<dim>28</dim>
				</port>
			</input>
			<output>
				<port id="2" precision="FP32" names="sequential_8/sequential_5/model2/block_4_add/add:0">
					<dim>1</dim>
					<dim>16</dim>
					<dim>28</dim>
					<dim>28</dim>
				</port>
			</output>
		</layer>
		<layer id="111" name="sequential_8/sequential_5/model2/block_5_expand_BN/FusedBatchNormV3/mean/Fused_Mul__copy_compressed" type="Const" version="opset1">
			<data element_type="f16" shape="96, 16, 1, 1" offset="18424" size="3072"/>
			<output>
				<port id="0" precision="FP16">
					<dim>96</dim>
					<dim>16</dim>
					<dim>1</dim>
					<dim>1</dim>
				</port>
			</output>
		</layer>
		<layer id="112" name="sequential_8/sequential_5/model2/block_5_expand_BN/FusedBatchNormV3/mean/Fused_Mul__copy" type="Convert" version="opset1">
			<data destination_type="f32"/>
			<rt_info>
				<attribute name="decompression" version="0"/>
				<attribute name="fused_names" version="0" value="sequential_8/sequential_5/model2/block_5_expand_BN/FusedBatchNormV3/mean/Fused_Mul__copy"/>
			</rt_info>
			<input>
				<port id="0" precision="FP16">
					<dim>96</dim>
					<dim>16</dim>
					<dim>1</dim>
					<dim>1</dim>
				</port>
			</input>
			<output>
				<port id="1" precision="FP32" names="sequential_8/sequential_5/model2/block_5_expand/Conv2D/ReadVariableOp:0">
					<dim>96</dim>
					<dim>16</dim>
					<dim>1</dim>
					<dim>1</dim>
				</port>
			</output>
		</layer>
		<layer id="113" name="sequential_8/sequential_5/model2/block_5_expand/Conv2D" type="Convolution" version="opset1">
			<data strides="1, 1" dilations="1, 1" pads_begin="0, 0" pads_end="0, 0" auto_pad="same_upper"/>
			<rt_info>
				<attribute name="fused_names" version="0" value="sequential_8/sequential_5/model2/block_5_expand/Conv2D"/>
			</rt_info>
			<input>
				<port id="0" precision="FP32">
					<dim>1</dim>
					<dim>16</dim>
					<dim>28</dim>
					<dim>28</dim>
				</port>
				<port id="1" precision="FP32">
					<dim>96</dim>
					<dim>16</dim>
					<dim>1</dim>
					<dim>1</dim>
				</port>
			</input>
			<output>
				<port id="2" precision="FP32">
					<dim>1</dim>
					<dim>96</dim>
					<dim>28</dim>
					<dim>28</dim>
				</port>
			</output>
		</layer>
		<layer id="114" name="data_add_1209912104_compressed" type="Const" version="opset1">
			<data element_type="f16" shape="1, 96, 1, 1" offset="21496" size="192"/>
			<output>
				<port id="0" precision="FP16">
					<dim>1</dim>
					<dim>96</dim>
					<dim>1</dim>
					<dim>1</dim>
				</port>
			</output>
		</layer>
		<layer id="115" name="data_add_1209912104" type="Convert" version="opset1">
			<data destination_type="f32"/>
			<rt_info>
				<attribute name="decompression" version="0"/>
				<attribute name="fused_names" version="0" value="data_add_1209912104"/>
			</rt_info>
			<input>
				<port id="0" precision="FP16">
					<dim>1</dim>
					<dim>96</dim>
					<dim>1</dim>
					<dim>1</dim>
				</port>
			</input>
			<output>
				<port id="1" precision="FP32">
					<dim>1</dim>
					<dim>96</dim>
					<dim>1</dim>
					<dim>1</dim>
				</port>
			</output>
		</layer>
		<layer id="116" name="sequential_8/sequential_5/model2/block_5_expand_BN/FusedBatchNormV3/variance/Fused_Add_" type="Add" version="opset1">
			<data auto_broadcast="numpy"/>
			<rt_info>
				<attribute name="fused_names" version="0" value="sequential_8/sequential_5/model2/block_5_expand_BN/FusedBatchNormV3/variance/Fused_Add_"/>
			</rt_info>
			<input>
				<port id="0" precision="FP32">
					<dim>1</dim>
					<dim>96</dim>
					<dim>28</dim>
					<dim>28</dim>
				</port>
				<port id="1" precision="FP32">
					<dim>1</dim>
					<dim>96</dim>
					<dim>1</dim>
					<dim>1</dim>
				</port>
			</input>
			<output>
				<port id="2" precision="FP32" names="sequential_8/sequential_5/model2/block_5_expand_BN/FusedBatchNormV3:0">
					<dim>1</dim>
					<dim>96</dim>
					<dim>28</dim>
					<dim>28</dim>
				</port>
			</output>
		</layer>
		<layer id="117" name="sequential_8/sequential_5/model2/block_5_expand_relu/Relu6" type="Clamp" version="opset1">
			<data min="0" max="6"/>
			<rt_info>
				<attribute name="fused_names" version="0" value="sequential_8/sequential_5/model2/block_5_expand_relu/Relu6"/>
			</rt_info>
			<input>
				<port id="0" precision="FP32">
					<dim>1</dim>
					<dim>96</dim>
					<dim>28</dim>
					<dim>28</dim>
				</port>
			</input>
			<output>
				<port id="1" precision="FP32" names="sequential_8/sequential_5/model2/block_5_expand_relu/Relu6:0">
					<dim>1</dim>
					<dim>96</dim>
					<dim>28</dim>
					<dim>28</dim>
				</port>
			</output>
		</layer>
		<layer id="118" name="sequential_8/sequential_5/model2/block_5_depthwise_BN/FusedBatchNormV3/mean/Fused_Mul__copy_compressed" type="Const" version="opset1">
			<data element_type="f16" shape="96, 1, 1, 3, 3" offset="21688" size="1728"/>
			<output>
				<port id="0" precision="FP16">
					<dim>96</dim>
					<dim>1</dim>
					<dim>1</dim>
					<dim>3</dim>
					<dim>3</dim>
				</port>
			</output>
		</layer>
		<layer id="119" name="sequential_8/sequential_5/model2/block_5_depthwise_BN/FusedBatchNormV3/mean/Fused_Mul__copy" type="Convert" version="opset1">
			<data destination_type="f32"/>
			<rt_info>
				<attribute name="decompression" version="0"/>
				<attribute name="fused_names" version="0" value="sequential_8/sequential_5/model2/block_5_depthwise_BN/FusedBatchNormV3/mean/Fused_Mul__copy"/>
			</rt_info>
			<input>
				<port id="0" precision="FP16">
					<dim>96</dim>
					<dim>1</dim>
					<dim>1</dim>
					<dim>3</dim>
					<dim>3</dim>
				</port>
			</input>
			<output>
				<port id="1" precision="FP32" names="sequential_8/sequential_5/model2/block_5_depthwise/depthwise/ReadVariableOp:0">
					<dim>96</dim>
					<dim>1</dim>
					<dim>1</dim>
					<dim>3</dim>
					<dim>3</dim>
				</port>
			</output>
		</layer>
		<layer id="120" name="sequential_8/sequential_5/model2/block_5_depthwise/depthwise" type="GroupConvolution" version="opset1">
			<data strides="1, 1" pads_begin="0, 0" pads_end="0, 0" dilations="1, 1" auto_pad="same_upper"/>
			<rt_info>
				<attribute name="fused_names" version="0" value="sequential_8/sequential_5/model2/block_5_depthwise/depthwise"/>
			</rt_info>
			<input>
				<port id="0" precision="FP32">
					<dim>1</dim>
					<dim>96</dim>
					<dim>28</dim>
					<dim>28</dim>
				</port>
				<port id="1" precision="FP32">
					<dim>96</dim>
					<dim>1</dim>
					<dim>1</dim>
					<dim>3</dim>
					<dim>3</dim>
				</port>
			</input>
			<output>
				<port id="2" precision="FP32">
					<dim>1</dim>
					<dim>96</dim>
					<dim>28</dim>
					<dim>28</dim>
				</port>
			</output>
		</layer>
		<layer id="121" name="data_add_1210712112_compressed" type="Const" version="opset1">
			<data element_type="f16" shape="1, 96, 1, 1" offset="23416" size="192"/>
			<output>
				<port id="0" precision="FP16">
					<dim>1</dim>
					<dim>96</dim>
					<dim>1</dim>
					<dim>1</dim>
				</port>
			</output>
		</layer>
		<layer id="122" name="data_add_1210712112" type="Convert" version="opset1">
			<data destination_type="f32"/>
			<rt_info>
				<attribute name="decompression" version="0"/>
				<attribute name="fused_names" version="0" value="data_add_1210712112"/>
			</rt_info>
			<input>
				<port id="0" precision="FP16">
					<dim>1</dim>
					<dim>96</dim>
					<dim>1</dim>
					<dim>1</dim>
				</port>
			</input>
			<output>
				<port id="1" precision="FP32">
					<dim>1</dim>
					<dim>96</dim>
					<dim>1</dim>
					<dim>1</dim>
				</port>
			</output>
		</layer>
		<layer id="123" name="sequential_8/sequential_5/model2/block_5_depthwise_BN/FusedBatchNormV3/variance/Fused_Add_" type="Add" version="opset1">
			<data auto_broadcast="numpy"/>
			<rt_info>
				<attribute name="fused_names" version="0" value="sequential_8/sequential_5/model2/block_5_depthwise_BN/FusedBatchNormV3/variance/Fused_Add_"/>
			</rt_info>
			<input>
				<port id="0" precision="FP32">
					<dim>1</dim>
					<dim>96</dim>
					<dim>28</dim>
					<dim>28</dim>
				</port>
				<port id="1" precision="FP32">
					<dim>1</dim>
					<dim>96</dim>
					<dim>1</dim>
					<dim>1</dim>
				</port>
			</input>
			<output>
				<port id="2" precision="FP32" names="sequential_8/sequential_5/model2/block_5_depthwise_BN/FusedBatchNormV3:0">
					<dim>1</dim>
					<dim>96</dim>
					<dim>28</dim>
					<dim>28</dim>
				</port>
			</output>
		</layer>
		<layer id="124" name="sequential_8/sequential_5/model2/block_5_depthwise_relu/Relu6" type="Clamp" version="opset1">
			<data min="0" max="6"/>
			<rt_info>
				<attribute name="fused_names" version="0" value="sequential_8/sequential_5/model2/block_5_depthwise_relu/Relu6"/>
			</rt_info>
			<input>
				<port id="0" precision="FP32">
					<dim>1</dim>
					<dim>96</dim>
					<dim>28</dim>
					<dim>28</dim>
				</port>
			</input>
			<output>
				<port id="1" precision="FP32" names="sequential_8/sequential_5/model2/block_5_depthwise_relu/Relu6:0">
					<dim>1</dim>
					<dim>96</dim>
					<dim>28</dim>
					<dim>28</dim>
				</port>
			</output>
		</layer>
		<layer id="125" name="sequential_8/sequential_5/model2/block_5_project_BN/FusedBatchNormV3/mean/Fused_Mul__copy_compressed" type="Const" version="opset1">
			<data element_type="f16" shape="16, 96, 1, 1" offset="23608" size="3072"/>
			<output>
				<port id="0" precision="FP16">
					<dim>16</dim>
					<dim>96</dim>
					<dim>1</dim>
					<dim>1</dim>
				</port>
			</output>
		</layer>
		<layer id="126" name="sequential_8/sequential_5/model2/block_5_project_BN/FusedBatchNormV3/mean/Fused_Mul__copy" type="Convert" version="opset1">
			<data destination_type="f32"/>
			<rt_info>
				<attribute name="decompression" version="0"/>
				<attribute name="fused_names" version="0" value="sequential_8/sequential_5/model2/block_5_project_BN/FusedBatchNormV3/mean/Fused_Mul__copy"/>
			</rt_info>
			<input>
				<port id="0" precision="FP16">
					<dim>16</dim>
					<dim>96</dim>
					<dim>1</dim>
					<dim>1</dim>
				</port>
			</input>
			<output>
				<port id="1" precision="FP32" names="sequential_8/sequential_5/model2/block_5_project/Conv2D/ReadVariableOp:0">
					<dim>16</dim>
					<dim>96</dim>
					<dim>1</dim>
					<dim>1</dim>
				</port>
			</output>
		</layer>
		<layer id="127" name="sequential_8/sequential_5/model2/block_5_project/Conv2D" type="Convolution" version="opset1">
			<data strides="1, 1" dilations="1, 1" pads_begin="0, 0" pads_end="0, 0" auto_pad="same_upper"/>
			<rt_info>
				<attribute name="fused_names" version="0" value="sequential_8/sequential_5/model2/block_5_project/Conv2D"/>
			</rt_info>
			<input>
				<port id="0" precision="FP32">
					<dim>1</dim>
					<dim>96</dim>
					<dim>28</dim>
					<dim>28</dim>
				</port>
				<port id="1" precision="FP32">
					<dim>16</dim>
					<dim>96</dim>
					<dim>1</dim>
					<dim>1</dim>
				</port>
			</input>
			<output>
				<port id="2" precision="FP32">
					<dim>1</dim>
					<dim>16</dim>
					<dim>28</dim>
					<dim>28</dim>
				</port>
			</output>
		</layer>
		<layer id="128" name="data_add_1211512120_compressed" type="Const" version="opset1">
			<data element_type="f16" shape="1, 16, 1, 1" offset="26680" size="32"/>
			<output>
				<port id="0" precision="FP16">
					<dim>1</dim>
					<dim>16</dim>
					<dim>1</dim>
					<dim>1</dim>
				</port>
			</output>
		</layer>
		<layer id="129" name="data_add_1211512120" type="Convert" version="opset1">
			<data destination_type="f32"/>
			<rt_info>
				<attribute name="decompression" version="0"/>
				<attribute name="fused_names" version="0" value="data_add_1211512120"/>
			</rt_info>
			<input>
				<port id="0" precision="FP16">
					<dim>1</dim>
					<dim>16</dim>
					<dim>1</dim>
					<dim>1</dim>
				</port>
			</input>
			<output>
				<port id="1" precision="FP32">
					<dim>1</dim>
					<dim>16</dim>
					<dim>1</dim>
					<dim>1</dim>
				</port>
			</output>
		</layer>
		<layer id="130" name="sequential_8/sequential_5/model2/block_5_project_BN/FusedBatchNormV3/variance/Fused_Add_" type="Add" version="opset1">
			<data auto_broadcast="numpy"/>
			<rt_info>
				<attribute name="fused_names" version="0" value="sequential_8/sequential_5/model2/block_5_project_BN/FusedBatchNormV3/variance/Fused_Add_"/>
			</rt_info>
			<input>
				<port id="0" precision="FP32">
					<dim>1</dim>
					<dim>16</dim>
					<dim>28</dim>
					<dim>28</dim>
				</port>
				<port id="1" precision="FP32">
					<dim>1</dim>
					<dim>16</dim>
					<dim>1</dim>
					<dim>1</dim>
				</port>
			</input>
			<output>
				<port id="2" precision="FP32" names="sequential_8/sequential_5/model2/block_5_project_BN/FusedBatchNormV3:0">
					<dim>1</dim>
					<dim>16</dim>
					<dim>28</dim>
					<dim>28</dim>
				</port>
			</output>
		</layer>
		<layer id="131" name="sequential_8/sequential_5/model2/block_5_add/add" type="Add" version="opset1">
			<data auto_broadcast="numpy"/>
			<rt_info>
				<attribute name="fused_names" version="0" value="sequential_8/sequential_5/model2/block_5_add/add"/>
			</rt_info>
			<input>
				<port id="0" precision="FP32">
					<dim>1</dim>
					<dim>16</dim>
					<dim>28</dim>
					<dim>28</dim>
				</port>
				<port id="1" precision="FP32">
					<dim>1</dim>
					<dim>16</dim>
					<dim>28</dim>
					<dim>28</dim>
				</port>
			</input>
			<output>
				<port id="2" precision="FP32" names="sequential_8/sequential_5/model2/block_5_add/add:0">
					<dim>1</dim>
					<dim>16</dim>
					<dim>28</dim>
					<dim>28</dim>
				</port>
			</output>
		</layer>
		<layer id="132" name="sequential_8/sequential_5/model2/block_6_expand_BN/FusedBatchNormV3/mean/Fused_Mul__copy_compressed" type="Const" version="opset1">
			<data element_type="f16" shape="96, 16, 1, 1" offset="26712" size="3072"/>
			<output>
				<port id="0" precision="FP16">
					<dim>96</dim>
					<dim>16</dim>
					<dim>1</dim>
					<dim>1</dim>
				</port>
			</output>
		</layer>
		<layer id="133" name="sequential_8/sequential_5/model2/block_6_expand_BN/FusedBatchNormV3/mean/Fused_Mul__copy" type="Convert" version="opset1">
			<data destination_type="f32"/>
			<rt_info>
				<attribute name="decompression" version="0"/>
				<attribute name="fused_names" version="0" value="sequential_8/sequential_5/model2/block_6_expand_BN/FusedBatchNormV3/mean/Fused_Mul__copy"/>
			</rt_info>
			<input>
				<port id="0" precision="FP16">
					<dim>96</dim>
					<dim>16</dim>
					<dim>1</dim>
					<dim>1</dim>
				</port>
			</input>
			<output>
				<port id="1" precision="FP32" names="sequential_8/sequential_5/model2/block_6_expand/Conv2D/ReadVariableOp:0">
					<dim>96</dim>
					<dim>16</dim>
					<dim>1</dim>
					<dim>1</dim>
				</port>
			</output>
		</layer>
		<layer id="134" name="sequential_8/sequential_5/model2/block_6_expand/Conv2D" type="Convolution" version="opset1">
			<data strides="1, 1" dilations="1, 1" pads_begin="0, 0" pads_end="0, 0" auto_pad="same_upper"/>
			<rt_info>
				<attribute name="fused_names" version="0" value="sequential_8/sequential_5/model2/block_6_expand/Conv2D"/>
			</rt_info>
			<input>
				<port id="0" precision="FP32">
					<dim>1</dim>
					<dim>16</dim>
					<dim>28</dim>
					<dim>28</dim>
				</port>
				<port id="1" precision="FP32">
					<dim>96</dim>
					<dim>16</dim>
					<dim>1</dim>
					<dim>1</dim>
				</port>
			</input>
			<output>
				<port id="2" precision="FP32">
					<dim>1</dim>
					<dim>96</dim>
					<dim>28</dim>
					<dim>28</dim>
				</port>
			</output>
		</layer>
		<layer id="135" name="data_add_1212312128_compressed" type="Const" version="opset1">
			<data element_type="f16" shape="1, 96, 1, 1" offset="29784" size="192"/>
			<output>
				<port id="0" precision="FP16">
					<dim>1</dim>
					<dim>96</dim>
					<dim>1</dim>
					<dim>1</dim>
				</port>
			</output>
		</layer>
		<layer id="136" name="data_add_1212312128" type="Convert" version="opset1">
			<data destination_type="f32"/>
			<rt_info>
				<attribute name="decompression" version="0"/>
				<attribute name="fused_names" version="0" value="data_add_1212312128"/>
			</rt_info>
			<input>
				<port id="0" precision="FP16">
					<dim>1</dim>
					<dim>96</dim>
					<dim>1</dim>
					<dim>1</dim>
				</port>
			</input>
			<output>
				<port id="1" precision="FP32">
					<dim>1</dim>
					<dim>96</dim>
					<dim>1</dim>
					<dim>1</dim>
				</port>
			</output>
		</layer>
		<layer id="137" name="sequential_8/sequential_5/model2/block_6_expand_BN/FusedBatchNormV3/variance/Fused_Add_" type="Add" version="opset1">
			<data auto_broadcast="numpy"/>
			<rt_info>
				<attribute name="fused_names" version="0" value="sequential_8/sequential_5/model2/block_6_expand_BN/FusedBatchNormV3/variance/Fused_Add_"/>
			</rt_info>
			<input>
				<port id="0" precision="FP32">
					<dim>1</dim>
					<dim>96</dim>
					<dim>28</dim>
					<dim>28</dim>
				</port>
				<port id="1" precision="FP32">
					<dim>1</dim>
					<dim>96</dim>
					<dim>1</dim>
					<dim>1</dim>
				</port>
			</input>
			<output>
				<port id="2" precision="FP32" names="sequential_8/sequential_5/model2/block_6_expand_BN/FusedBatchNormV3:0">
					<dim>1</dim>
					<dim>96</dim>
					<dim>28</dim>
					<dim>28</dim>
				</port>
			</output>
		</layer>
		<layer id="138" name="sequential_8/sequential_5/model2/block_6_expand_relu/Relu6" type="Clamp" version="opset1">
			<data min="0" max="6"/>
			<rt_info>
				<attribute name="fused_names" version="0" value="sequential_8/sequential_5/model2/block_6_expand_relu/Relu6"/>
			</rt_info>
			<input>
				<port id="0" precision="FP32">
					<dim>1</dim>
					<dim>96</dim>
					<dim>28</dim>
					<dim>28</dim>
				</port>
			</input>
			<output>
				<port id="1" precision="FP32" names="sequential_8/sequential_5/model2/block_6_expand_relu/Relu6:0">
					<dim>1</dim>
					<dim>96</dim>
					<dim>28</dim>
					<dim>28</dim>
				</port>
			</output>
		</layer>
		<layer id="139" name="sequential_8/sequential_5/model2/block_6_depthwise_BN/FusedBatchNormV3/mean/Fused_Mul__copy_compressed" type="Const" version="opset1">
			<data element_type="f16" shape="96, 1, 1, 3, 3" offset="29976" size="1728"/>
			<output>
				<port id="0" precision="FP16">
					<dim>96</dim>
					<dim>1</dim>
					<dim>1</dim>
					<dim>3</dim>
					<dim>3</dim>
				</port>
			</output>
		</layer>
		<layer id="140" name="sequential_8/sequential_5/model2/block_6_depthwise_BN/FusedBatchNormV3/mean/Fused_Mul__copy" type="Convert" version="opset1">
			<data destination_type="f32"/>
			<rt_info>
				<attribute name="decompression" version="0"/>
				<attribute name="fused_names" version="0" value="sequential_8/sequential_5/model2/block_6_depthwise_BN/FusedBatchNormV3/mean/Fused_Mul__copy"/>
			</rt_info>
			<input>
				<port id="0" precision="FP16">
					<dim>96</dim>
					<dim>1</dim>
					<dim>1</dim>
					<dim>3</dim>
					<dim>3</dim>
				</port>
			</input>
			<output>
				<port id="1" precision="FP32" names="sequential_8/sequential_5/model2/block_6_depthwise/depthwise/ReadVariableOp:0">
					<dim>96</dim>
					<dim>1</dim>
					<dim>1</dim>
					<dim>3</dim>
					<dim>3</dim>
				</port>
			</output>
		</layer>
		<layer id="141" name="sequential_8/sequential_5/model2/block_6_depthwise/depthwise" type="GroupConvolution" version="opset1">
			<data strides="2, 2" pads_begin="0, 0" pads_end="1, 1" dilations="1, 1" auto_pad="explicit"/>
			<rt_info>
				<attribute name="fused_names" version="0" value="sequential_8/sequential_5/model2/block_6_depthwise/depthwise, sequential_8/sequential_5/model2/block_6_pad/Pad"/>
			</rt_info>
			<input>
				<port id="0" precision="FP32">
					<dim>1</dim>
					<dim>96</dim>
					<dim>28</dim>
					<dim>28</dim>
				</port>
				<port id="1" precision="FP32">
					<dim>96</dim>
					<dim>1</dim>
					<dim>1</dim>
					<dim>3</dim>
					<dim>3</dim>
				</port>
			</input>
			<output>
				<port id="2" precision="FP32">
					<dim>1</dim>
					<dim>96</dim>
					<dim>14</dim>
					<dim>14</dim>
				</port>
			</output>
		</layer>
		<layer id="142" name="data_add_1213112136_compressed" type="Const" version="opset1">
			<data element_type="f16" shape="1, 96, 1, 1" offset="31704" size="192"/>
			<output>
				<port id="0" precision="FP16">
					<dim>1</dim>
					<dim>96</dim>
					<dim>1</dim>
					<dim>1</dim>
				</port>
			</output>
		</layer>
		<layer id="143" name="data_add_1213112136" type="Convert" version="opset1">
			<data destination_type="f32"/>
			<rt_info>
				<attribute name="decompression" version="0"/>
				<attribute name="fused_names" version="0" value="data_add_1213112136"/>
			</rt_info>
			<input>
				<port id="0" precision="FP16">
					<dim>1</dim>
					<dim>96</dim>
					<dim>1</dim>
					<dim>1</dim>
				</port>
			</input>
			<output>
				<port id="1" precision="FP32">
					<dim>1</dim>
					<dim>96</dim>
					<dim>1</dim>
					<dim>1</dim>
				</port>
			</output>
		</layer>
		<layer id="144" name="sequential_8/sequential_5/model2/block_6_depthwise_BN/FusedBatchNormV3/variance/Fused_Add_" type="Add" version="opset1">
			<data auto_broadcast="numpy"/>
			<rt_info>
				<attribute name="fused_names" version="0" value="sequential_8/sequential_5/model2/block_6_depthwise_BN/FusedBatchNormV3/variance/Fused_Add_"/>
			</rt_info>
			<input>
				<port id="0" precision="FP32">
					<dim>1</dim>
					<dim>96</dim>
					<dim>14</dim>
					<dim>14</dim>
				</port>
				<port id="1" precision="FP32">
					<dim>1</dim>
					<dim>96</dim>
					<dim>1</dim>
					<dim>1</dim>
				</port>
			</input>
			<output>
				<port id="2" precision="FP32" names="sequential_8/sequential_5/model2/block_6_depthwise_BN/FusedBatchNormV3:0">
					<dim>1</dim>
					<dim>96</dim>
					<dim>14</dim>
					<dim>14</dim>
				</port>
			</output>
		</layer>
		<layer id="145" name="sequential_8/sequential_5/model2/block_6_depthwise_relu/Relu6" type="Clamp" version="opset1">
			<data min="0" max="6"/>
			<rt_info>
				<attribute name="fused_names" version="0" value="sequential_8/sequential_5/model2/block_6_depthwise_relu/Relu6"/>
			</rt_info>
			<input>
				<port id="0" precision="FP32">
					<dim>1</dim>
					<dim>96</dim>
					<dim>14</dim>
					<dim>14</dim>
				</port>
			</input>
			<output>
				<port id="1" precision="FP32" names="sequential_8/sequential_5/model2/block_6_depthwise_relu/Relu6:0">
					<dim>1</dim>
					<dim>96</dim>
					<dim>14</dim>
					<dim>14</dim>
				</port>
			</output>
		</layer>
		<layer id="146" name="sequential_8/sequential_5/model2/block_6_project_BN/FusedBatchNormV3/mean/Fused_Mul__copy_compressed" type="Const" version="opset1">
			<data element_type="f16" shape="24, 96, 1, 1" offset="31896" size="4608"/>
			<output>
				<port id="0" precision="FP16">
					<dim>24</dim>
					<dim>96</dim>
					<dim>1</dim>
					<dim>1</dim>
				</port>
			</output>
		</layer>
		<layer id="147" name="sequential_8/sequential_5/model2/block_6_project_BN/FusedBatchNormV3/mean/Fused_Mul__copy" type="Convert" version="opset1">
			<data destination_type="f32"/>
			<rt_info>
				<attribute name="decompression" version="0"/>
				<attribute name="fused_names" version="0" value="sequential_8/sequential_5/model2/block_6_project_BN/FusedBatchNormV3/mean/Fused_Mul__copy"/>
			</rt_info>
			<input>
				<port id="0" precision="FP16">
					<dim>24</dim>
					<dim>96</dim>
					<dim>1</dim>
					<dim>1</dim>
				</port>
			</input>
			<output>
				<port id="1" precision="FP32" names="sequential_8/sequential_5/model2/block_6_project/Conv2D/ReadVariableOp:0">
					<dim>24</dim>
					<dim>96</dim>
					<dim>1</dim>
					<dim>1</dim>
				</port>
			</output>
		</layer>
		<layer id="148" name="sequential_8/sequential_5/model2/block_6_project/Conv2D" type="Convolution" version="opset1">
			<data strides="1, 1" dilations="1, 1" pads_begin="0, 0" pads_end="0, 0" auto_pad="same_upper"/>
			<rt_info>
				<attribute name="fused_names" version="0" value="sequential_8/sequential_5/model2/block_6_project/Conv2D"/>
			</rt_info>
			<input>
				<port id="0" precision="FP32">
					<dim>1</dim>
					<dim>96</dim>
					<dim>14</dim>
					<dim>14</dim>
				</port>
				<port id="1" precision="FP32">
					<dim>24</dim>
					<dim>96</dim>
					<dim>1</dim>
					<dim>1</dim>
				</port>
			</input>
			<output>
				<port id="2" precision="FP32">
					<dim>1</dim>
					<dim>24</dim>
					<dim>14</dim>
					<dim>14</dim>
				</port>
			</output>
		</layer>
		<layer id="149" name="data_add_1213912144_compressed" type="Const" version="opset1">
			<data element_type="f16" shape="1, 24, 1, 1" offset="36504" size="48"/>
			<output>
				<port id="0" precision="FP16">
					<dim>1</dim>
					<dim>24</dim>
					<dim>1</dim>
					<dim>1</dim>
				</port>
			</output>
		</layer>
		<layer id="150" name="data_add_1213912144" type="Convert" version="opset1">
			<data destination_type="f32"/>
			<rt_info>
				<attribute name="decompression" version="0"/>
				<attribute name="fused_names" version="0" value="data_add_1213912144"/>
			</rt_info>
			<input>
				<port id="0" precision="FP16">
					<dim>1</dim>
					<dim>24</dim>
					<dim>1</dim>
					<dim>1</dim>
				</port>
			</input>
			<output>
				<port id="1" precision="FP32">
					<dim>1</dim>
					<dim>24</dim>
					<dim>1</dim>
					<dim>1</dim>
				</port>
			</output>
		</layer>
		<layer id="151" name="sequential_8/sequential_5/model2/block_6_project_BN/FusedBatchNormV3/variance/Fused_Add_" type="Add" version="opset1">
			<data auto_broadcast="numpy"/>
			<rt_info>
				<attribute name="fused_names" version="0" value="sequential_8/sequential_5/model2/block_6_project_BN/FusedBatchNormV3/variance/Fused_Add_"/>
			</rt_info>
			<input>
				<port id="0" precision="FP32">
					<dim>1</dim>
					<dim>24</dim>
					<dim>14</dim>
					<dim>14</dim>
				</port>
				<port id="1" precision="FP32">
					<dim>1</dim>
					<dim>24</dim>
					<dim>1</dim>
					<dim>1</dim>
				</port>
			</input>
			<output>
				<port id="2" precision="FP32" names="sequential_8/sequential_5/model2/block_6_project_BN/FusedBatchNormV3:0">
					<dim>1</dim>
					<dim>24</dim>
					<dim>14</dim>
					<dim>14</dim>
				</port>
			</output>
		</layer>
		<layer id="152" name="sequential_8/sequential_5/model2/block_7_expand_BN/FusedBatchNormV3/mean/Fused_Mul__copy_compressed" type="Const" version="opset1">
			<data element_type="f16" shape="144, 24, 1, 1" offset="36552" size="6912"/>
			<output>
				<port id="0" precision="FP16">
					<dim>144</dim>
					<dim>24</dim>
					<dim>1</dim>
					<dim>1</dim>
				</port>
			</output>
		</layer>
		<layer id="153" name="sequential_8/sequential_5/model2/block_7_expand_BN/FusedBatchNormV3/mean/Fused_Mul__copy" type="Convert" version="opset1">
			<data destination_type="f32"/>
			<rt_info>
				<attribute name="decompression" version="0"/>
				<attribute name="fused_names" version="0" value="sequential_8/sequential_5/model2/block_7_expand_BN/FusedBatchNormV3/mean/Fused_Mul__copy"/>
			</rt_info>
			<input>
				<port id="0" precision="FP16">
					<dim>144</dim>
					<dim>24</dim>
					<dim>1</dim>
					<dim>1</dim>
				</port>
			</input>
			<output>
				<port id="1" precision="FP32" names="sequential_8/sequential_5/model2/block_7_expand/Conv2D/ReadVariableOp:0">
					<dim>144</dim>
					<dim>24</dim>
					<dim>1</dim>
					<dim>1</dim>
				</port>
			</output>
		</layer>
		<layer id="154" name="sequential_8/sequential_5/model2/block_7_expand/Conv2D" type="Convolution" version="opset1">
			<data strides="1, 1" dilations="1, 1" pads_begin="0, 0" pads_end="0, 0" auto_pad="same_upper"/>
			<rt_info>
				<attribute name="fused_names" version="0" value="sequential_8/sequential_5/model2/block_7_expand/Conv2D"/>
			</rt_info>
			<input>
				<port id="0" precision="FP32">
					<dim>1</dim>
					<dim>24</dim>
					<dim>14</dim>
					<dim>14</dim>
				</port>
				<port id="1" precision="FP32">
					<dim>144</dim>
					<dim>24</dim>
					<dim>1</dim>
					<dim>1</dim>
				</port>
			</input>
			<output>
				<port id="2" precision="FP32">
					<dim>1</dim>
					<dim>144</dim>
					<dim>14</dim>
					<dim>14</dim>
				</port>
			</output>
		</layer>
		<layer id="155" name="data_add_1214712152_compressed" type="Const" version="opset1">
			<data element_type="f16" shape="1, 144, 1, 1" offset="43464" size="288"/>
			<output>
				<port id="0" precision="FP16">
					<dim>1</dim>
					<dim>144</dim>
					<dim>1</dim>
					<dim>1</dim>
				</port>
			</output>
		</layer>
		<layer id="156" name="data_add_1214712152" type="Convert" version="opset1">
			<data destination_type="f32"/>
			<rt_info>
				<attribute name="decompression" version="0"/>
				<attribute name="fused_names" version="0" value="data_add_1214712152"/>
			</rt_info>
			<input>
				<port id="0" precision="FP16">
					<dim>1</dim>
					<dim>144</dim>
					<dim>1</dim>
					<dim>1</dim>
				</port>
			</input>
			<output>
				<port id="1" precision="FP32">
					<dim>1</dim>
					<dim>144</dim>
					<dim>1</dim>
					<dim>1</dim>
				</port>
			</output>
		</layer>
		<layer id="157" name="sequential_8/sequential_5/model2/block_7_expand_BN/FusedBatchNormV3/variance/Fused_Add_" type="Add" version="opset1">
			<data auto_broadcast="numpy"/>
			<rt_info>
				<attribute name="fused_names" version="0" value="sequential_8/sequential_5/model2/block_7_expand_BN/FusedBatchNormV3/variance/Fused_Add_"/>
			</rt_info>
			<input>
				<port id="0" precision="FP32">
					<dim>1</dim>
					<dim>144</dim>
					<dim>14</dim>
					<dim>14</dim>
				</port>
				<port id="1" precision="FP32">
					<dim>1</dim>
					<dim>144</dim>
					<dim>1</dim>
					<dim>1</dim>
				</port>
			</input>
			<output>
				<port id="2" precision="FP32" names="sequential_8/sequential_5/model2/block_7_expand_BN/FusedBatchNormV3:0">
					<dim>1</dim>
					<dim>144</dim>
					<dim>14</dim>
					<dim>14</dim>
				</port>
			</output>
		</layer>
		<layer id="158" name="sequential_8/sequential_5/model2/block_7_expand_relu/Relu6" type="Clamp" version="opset1">
			<data min="0" max="6"/>
			<rt_info>
				<attribute name="fused_names" version="0" value="sequential_8/sequential_5/model2/block_7_expand_relu/Relu6"/>
			</rt_info>
			<input>
				<port id="0" precision="FP32">
					<dim>1</dim>
					<dim>144</dim>
					<dim>14</dim>
					<dim>14</dim>
				</port>
			</input>
			<output>
				<port id="1" precision="FP32" names="sequential_8/sequential_5/model2/block_7_expand_relu/Relu6:0">
					<dim>1</dim>
					<dim>144</dim>
					<dim>14</dim>
					<dim>14</dim>
				</port>
			</output>
		</layer>
		<layer id="159" name="sequential_8/sequential_5/model2/block_7_depthwise_BN/FusedBatchNormV3/mean/Fused_Mul__copy_compressed" type="Const" version="opset1">
			<data element_type="f16" shape="144, 1, 1, 3, 3" offset="43752" size="2592"/>
			<output>
				<port id="0" precision="FP16">
					<dim>144</dim>
					<dim>1</dim>
					<dim>1</dim>
					<dim>3</dim>
					<dim>3</dim>
				</port>
			</output>
		</layer>
		<layer id="160" name="sequential_8/sequential_5/model2/block_7_depthwise_BN/FusedBatchNormV3/mean/Fused_Mul__copy" type="Convert" version="opset1">
			<data destination_type="f32"/>
			<rt_info>
				<attribute name="decompression" version="0"/>
				<attribute name="fused_names" version="0" value="sequential_8/sequential_5/model2/block_7_depthwise_BN/FusedBatchNormV3/mean/Fused_Mul__copy"/>
			</rt_info>
			<input>
				<port id="0" precision="FP16">
					<dim>144</dim>
					<dim>1</dim>
					<dim>1</dim>
					<dim>3</dim>
					<dim>3</dim>
				</port>
			</input>
			<output>
				<port id="1" precision="FP32" names="sequential_8/sequential_5/model2/block_7_depthwise/depthwise/ReadVariableOp:0">
					<dim>144</dim>
					<dim>1</dim>
					<dim>1</dim>
					<dim>3</dim>
					<dim>3</dim>
				</port>
			</output>
		</layer>
		<layer id="161" name="sequential_8/sequential_5/model2/block_7_depthwise/depthwise" type="GroupConvolution" version="opset1">
			<data strides="1, 1" pads_begin="0, 0" pads_end="0, 0" dilations="1, 1" auto_pad="same_upper"/>
			<rt_info>
				<attribute name="fused_names" version="0" value="sequential_8/sequential_5/model2/block_7_depthwise/depthwise"/>
			</rt_info>
			<input>
				<port id="0" precision="FP32">
					<dim>1</dim>
					<dim>144</dim>
					<dim>14</dim>
					<dim>14</dim>
				</port>
				<port id="1" precision="FP32">
					<dim>144</dim>
					<dim>1</dim>
					<dim>1</dim>
					<dim>3</dim>
					<dim>3</dim>
				</port>
			</input>
			<output>
				<port id="2" precision="FP32">
					<dim>1</dim>
					<dim>144</dim>
					<dim>14</dim>
					<dim>14</dim>
				</port>
			</output>
		</layer>
		<layer id="162" name="data_add_1215512160_compressed" type="Const" version="opset1">
			<data element_type="f16" shape="1, 144, 1, 1" offset="46344" size="288"/>
			<output>
				<port id="0" precision="FP16">
					<dim>1</dim>
					<dim>144</dim>
					<dim>1</dim>
					<dim>1</dim>
				</port>
			</output>
		</layer>
		<layer id="163" name="data_add_1215512160" type="Convert" version="opset1">
			<data destination_type="f32"/>
			<rt_info>
				<attribute name="decompression" version="0"/>
				<attribute name="fused_names" version="0" value="data_add_1215512160"/>
			</rt_info>
			<input>
				<port id="0" precision="FP16">
					<dim>1</dim>
					<dim>144</dim>
					<dim>1</dim>
					<dim>1</dim>
				</port>
			</input>
			<output>
				<port id="1" precision="FP32">
					<dim>1</dim>
					<dim>144</dim>
					<dim>1</dim>
					<dim>1</dim>
				</port>
			</output>
		</layer>
		<layer id="164" name="sequential_8/sequential_5/model2/block_7_depthwise_BN/FusedBatchNormV3/variance/Fused_Add_" type="Add" version="opset1">
			<data auto_broadcast="numpy"/>
			<rt_info>
				<attribute name="fused_names" version="0" value="sequential_8/sequential_5/model2/block_7_depthwise_BN/FusedBatchNormV3/variance/Fused_Add_"/>
			</rt_info>
			<input>
				<port id="0" precision="FP32">
					<dim>1</dim>
					<dim>144</dim>
					<dim>14</dim>
					<dim>14</dim>
				</port>
				<port id="1" precision="FP32">
					<dim>1</dim>
					<dim>144</dim>
					<dim>1</dim>
					<dim>1</dim>
				</port>
			</input>
			<output>
				<port id="2" precision="FP32" names="sequential_8/sequential_5/model2/block_7_depthwise_BN/FusedBatchNormV3:0">
					<dim>1</dim>
					<dim>144</dim>
					<dim>14</dim>
					<dim>14</dim>
				</port>
			</output>
		</layer>
		<layer id="165" name="sequential_8/sequential_5/model2/block_7_depthwise_relu/Relu6" type="Clamp" version="opset1">
			<data min="0" max="6"/>
			<rt_info>
				<attribute name="fused_names" version="0" value="sequential_8/sequential_5/model2/block_7_depthwise_relu/Relu6"/>
			</rt_info>
			<input>
				<port id="0" precision="FP32">
					<dim>1</dim>
					<dim>144</dim>
					<dim>14</dim>
					<dim>14</dim>
				</port>
			</input>
			<output>
				<port id="1" precision="FP32" names="sequential_8/sequential_5/model2/block_7_depthwise_relu/Relu6:0">
					<dim>1</dim>
					<dim>144</dim>
					<dim>14</dim>
					<dim>14</dim>
				</port>
			</output>
		</layer>
		<layer id="166" name="sequential_8/sequential_5/model2/block_7_project_BN/FusedBatchNormV3/mean/Fused_Mul__copy_compressed" type="Const" version="opset1">
			<data element_type="f16" shape="24, 144, 1, 1" offset="46632" size="6912"/>
			<output>
				<port id="0" precision="FP16">
					<dim>24</dim>
					<dim>144</dim>
					<dim>1</dim>
					<dim>1</dim>
				</port>
			</output>
		</layer>
		<layer id="167" name="sequential_8/sequential_5/model2/block_7_project_BN/FusedBatchNormV3/mean/Fused_Mul__copy" type="Convert" version="opset1">
			<data destination_type="f32"/>
			<rt_info>
				<attribute name="decompression" version="0"/>
				<attribute name="fused_names" version="0" value="sequential_8/sequential_5/model2/block_7_project_BN/FusedBatchNormV3/mean/Fused_Mul__copy"/>
			</rt_info>
			<input>
				<port id="0" precision="FP16">
					<dim>24</dim>
					<dim>144</dim>
					<dim>1</dim>
					<dim>1</dim>
				</port>
			</input>
			<output>
				<port id="1" precision="FP32" names="sequential_8/sequential_5/model2/block_7_project/Conv2D/ReadVariableOp:0">
					<dim>24</dim>
					<dim>144</dim>
					<dim>1</dim>
					<dim>1</dim>
				</port>
			</output>
		</layer>
		<layer id="168" name="sequential_8/sequential_5/model2/block_7_project/Conv2D" type="Convolution" version="opset1">
			<data strides="1, 1" dilations="1, 1" pads_begin="0, 0" pads_end="0, 0" auto_pad="same_upper"/>
			<rt_info>
				<attribute name="fused_names" version="0" value="sequential_8/sequential_5/model2/block_7_project/Conv2D"/>
			</rt_info>
			<input>
				<port id="0" precision="FP32">
					<dim>1</dim>
					<dim>144</dim>
					<dim>14</dim>
					<dim>14</dim>
				</port>
				<port id="1" precision="FP32">
					<dim>24</dim>
					<dim>144</dim>
					<dim>1</dim>
					<dim>1</dim>
				</port>
			</input>
			<output>
				<port id="2" precision="FP32">
					<dim>1</dim>
					<dim>24</dim>
					<dim>14</dim>
					<dim>14</dim>
				</port>
			</output>
		</layer>
		<layer id="169" name="data_add_1216312168_compressed" type="Const" version="opset1">
			<data element_type="f16" shape="1, 24, 1, 1" offset="53544" size="48"/>
			<output>
				<port id="0" precision="FP16">
					<dim>1</dim>
					<dim>24</dim>
					<dim>1</dim>
					<dim>1</dim>
				</port>
			</output>
		</layer>
		<layer id="170" name="data_add_1216312168" type="Convert" version="opset1">
			<data destination_type="f32"/>
			<rt_info>
				<attribute name="decompression" version="0"/>
				<attribute name="fused_names" version="0" value="data_add_1216312168"/>
			</rt_info>
			<input>
				<port id="0" precision="FP16">
					<dim>1</dim>
					<dim>24</dim>
					<dim>1</dim>
					<dim>1</dim>
				</port>
			</input>
			<output>
				<port id="1" precision="FP32">
					<dim>1</dim>
					<dim>24</dim>
					<dim>1</dim>
					<dim>1</dim>
				</port>
			</output>
		</layer>
		<layer id="171" name="sequential_8/sequential_5/model2/block_7_project_BN/FusedBatchNormV3/variance/Fused_Add_" type="Add" version="opset1">
			<data auto_broadcast="numpy"/>
			<rt_info>
				<attribute name="fused_names" version="0" value="sequential_8/sequential_5/model2/block_7_project_BN/FusedBatchNormV3/variance/Fused_Add_"/>
			</rt_info>
			<input>
				<port id="0" precision="FP32">
					<dim>1</dim>
					<dim>24</dim>
					<dim>14</dim>
					<dim>14</dim>
				</port>
				<port id="1" precision="FP32">
					<dim>1</dim>
					<dim>24</dim>
					<dim>1</dim>
					<dim>1</dim>
				</port>
			</input>
			<output>
				<port id="2" precision="FP32" names="sequential_8/sequential_5/model2/block_7_project_BN/FusedBatchNormV3:0">
					<dim>1</dim>
					<dim>24</dim>
					<dim>14</dim>
					<dim>14</dim>
				</port>
			</output>
		</layer>
		<layer id="172" name="sequential_8/sequential_5/model2/block_7_add/add" type="Add" version="opset1">
			<data auto_broadcast="numpy"/>
			<rt_info>
				<attribute name="fused_names" version="0" value="sequential_8/sequential_5/model2/block_7_add/add"/>
			</rt_info>
			<input>
				<port id="0" precision="FP32">
					<dim>1</dim>
					<dim>24</dim>
					<dim>14</dim>
					<dim>14</dim>
				</port>
				<port id="1" precision="FP32">
					<dim>1</dim>
					<dim>24</dim>
					<dim>14</dim>
					<dim>14</dim>
				</port>
			</input>
			<output>
				<port id="2" precision="FP32" names="sequential_8/sequential_5/model2/block_7_add/add:0">
					<dim>1</dim>
					<dim>24</dim>
					<dim>14</dim>
					<dim>14</dim>
				</port>
			</output>
		</layer>
		<layer id="173" name="sequential_8/sequential_5/model2/block_8_expand_BN/FusedBatchNormV3/mean/Fused_Mul__copy_compressed" type="Const" version="opset1">
			<data element_type="f16" shape="144, 24, 1, 1" offset="53592" size="6912"/>
			<output>
				<port id="0" precision="FP16">
					<dim>144</dim>
					<dim>24</dim>
					<dim>1</dim>
					<dim>1</dim>
				</port>
			</output>
		</layer>
		<layer id="174" name="sequential_8/sequential_5/model2/block_8_expand_BN/FusedBatchNormV3/mean/Fused_Mul__copy" type="Convert" version="opset1">
			<data destination_type="f32"/>
			<rt_info>
				<attribute name="decompression" version="0"/>
				<attribute name="fused_names" version="0" value="sequential_8/sequential_5/model2/block_8_expand_BN/FusedBatchNormV3/mean/Fused_Mul__copy"/>
			</rt_info>
			<input>
				<port id="0" precision="FP16">
					<dim>144</dim>
					<dim>24</dim>
					<dim>1</dim>
					<dim>1</dim>
				</port>
			</input>
			<output>
				<port id="1" precision="FP32" names="sequential_8/sequential_5/model2/block_8_expand/Conv2D/ReadVariableOp:0">
					<dim>144</dim>
					<dim>24</dim>
					<dim>1</dim>
					<dim>1</dim>
				</port>
			</output>
		</layer>
		<layer id="175" name="sequential_8/sequential_5/model2/block_8_expand/Conv2D" type="Convolution" version="opset1">
			<data strides="1, 1" dilations="1, 1" pads_begin="0, 0" pads_end="0, 0" auto_pad="same_upper"/>
			<rt_info>
				<attribute name="fused_names" version="0" value="sequential_8/sequential_5/model2/block_8_expand/Conv2D"/>
			</rt_info>
			<input>
				<port id="0" precision="FP32">
					<dim>1</dim>
					<dim>24</dim>
					<dim>14</dim>
					<dim>14</dim>
				</port>
				<port id="1" precision="FP32">
					<dim>144</dim>
					<dim>24</dim>
					<dim>1</dim>
					<dim>1</dim>
				</port>
			</input>
			<output>
				<port id="2" precision="FP32">
					<dim>1</dim>
					<dim>144</dim>
					<dim>14</dim>
					<dim>14</dim>
				</port>
			</output>
		</layer>
		<layer id="176" name="data_add_1217112176_compressed" type="Const" version="opset1">
			<data element_type="f16" shape="1, 144, 1, 1" offset="60504" size="288"/>
			<output>
				<port id="0" precision="FP16">
					<dim>1</dim>
					<dim>144</dim>
					<dim>1</dim>
					<dim>1</dim>
				</port>
			</output>
		</layer>
		<layer id="177" name="data_add_1217112176" type="Convert" version="opset1">
			<data destination_type="f32"/>
			<rt_info>
				<attribute name="decompression" version="0"/>
				<attribute name="fused_names" version="0" value="data_add_1217112176"/>
			</rt_info>
			<input>
				<port id="0" precision="FP16">
					<dim>1</dim>
					<dim>144</dim>
					<dim>1</dim>
					<dim>1</dim>
				</port>
			</input>
			<output>
				<port id="1" precision="FP32">
					<dim>1</dim>
					<dim>144</dim>
					<dim>1</dim>
					<dim>1</dim>
				</port>
			</output>
		</layer>
		<layer id="178" name="sequential_8/sequential_5/model2/block_8_expand_BN/FusedBatchNormV3/variance/Fused_Add_" type="Add" version="opset1">
			<data auto_broadcast="numpy"/>
			<rt_info>
				<attribute name="fused_names" version="0" value="sequential_8/sequential_5/model2/block_8_expand_BN/FusedBatchNormV3/variance/Fused_Add_"/>
			</rt_info>
			<input>
				<port id="0" precision="FP32">
					<dim>1</dim>
					<dim>144</dim>
					<dim>14</dim>
					<dim>14</dim>
				</port>
				<port id="1" precision="FP32">
					<dim>1</dim>
					<dim>144</dim>
					<dim>1</dim>
					<dim>1</dim>
				</port>
			</input>
			<output>
				<port id="2" precision="FP32" names="sequential_8/sequential_5/model2/block_8_expand_BN/FusedBatchNormV3:0">
					<dim>1</dim>
					<dim>144</dim>
					<dim>14</dim>
					<dim>14</dim>
				</port>
			</output>
		</layer>
		<layer id="179" name="sequential_8/sequential_5/model2/block_8_expand_relu/Relu6" type="Clamp" version="opset1">
			<data min="0" max="6"/>
			<rt_info>
				<attribute name="fused_names" version="0" value="sequential_8/sequential_5/model2/block_8_expand_relu/Relu6"/>
			</rt_info>
			<input>
				<port id="0" precision="FP32">
					<dim>1</dim>
					<dim>144</dim>
					<dim>14</dim>
					<dim>14</dim>
				</port>
			</input>
			<output>
				<port id="1" precision="FP32" names="sequential_8/sequential_5/model2/block_8_expand_relu/Relu6:0">
					<dim>1</dim>
					<dim>144</dim>
					<dim>14</dim>
					<dim>14</dim>
				</port>
			</output>
		</layer>
		<layer id="180" name="sequential_8/sequential_5/model2/block_8_depthwise_BN/FusedBatchNormV3/mean/Fused_Mul__copy_compressed" type="Const" version="opset1">
			<data element_type="f16" shape="144, 1, 1, 3, 3" offset="60792" size="2592"/>
			<output>
				<port id="0" precision="FP16">
					<dim>144</dim>
					<dim>1</dim>
					<dim>1</dim>
					<dim>3</dim>
					<dim>3</dim>
				</port>
			</output>
		</layer>
		<layer id="181" name="sequential_8/sequential_5/model2/block_8_depthwise_BN/FusedBatchNormV3/mean/Fused_Mul__copy" type="Convert" version="opset1">
			<data destination_type="f32"/>
			<rt_info>
				<attribute name="decompression" version="0"/>
				<attribute name="fused_names" version="0" value="sequential_8/sequential_5/model2/block_8_depthwise_BN/FusedBatchNormV3/mean/Fused_Mul__copy"/>
			</rt_info>
			<input>
				<port id="0" precision="FP16">
					<dim>144</dim>
					<dim>1</dim>
					<dim>1</dim>
					<dim>3</dim>
					<dim>3</dim>
				</port>
			</input>
			<output>
				<port id="1" precision="FP32" names="sequential_8/sequential_5/model2/block_8_depthwise/depthwise/ReadVariableOp:0">
					<dim>144</dim>
					<dim>1</dim>
					<dim>1</dim>
					<dim>3</dim>
					<dim>3</dim>
				</port>
			</output>
		</layer>
		<layer id="182" name="sequential_8/sequential_5/model2/block_8_depthwise/depthwise" type="GroupConvolution" version="opset1">
			<data strides="1, 1" pads_begin="0, 0" pads_end="0, 0" dilations="1, 1" auto_pad="same_upper"/>
			<rt_info>
				<attribute name="fused_names" version="0" value="sequential_8/sequential_5/model2/block_8_depthwise/depthwise"/>
			</rt_info>
			<input>
				<port id="0" precision="FP32">
					<dim>1</dim>
					<dim>144</dim>
					<dim>14</dim>
					<dim>14</dim>
				</port>
				<port id="1" precision="FP32">
					<dim>144</dim>
					<dim>1</dim>
					<dim>1</dim>
					<dim>3</dim>
					<dim>3</dim>
				</port>
			</input>
			<output>
				<port id="2" precision="FP32">
					<dim>1</dim>
					<dim>144</dim>
					<dim>14</dim>
					<dim>14</dim>
				</port>
			</output>
		</layer>
		<layer id="183" name="data_add_1217912184_compressed" type="Const" version="opset1">
			<data element_type="f16" shape="1, 144, 1, 1" offset="63384" size="288"/>
			<output>
				<port id="0" precision="FP16">
					<dim>1</dim>
					<dim>144</dim>
					<dim>1</dim>
					<dim>1</dim>
				</port>
			</output>
		</layer>
		<layer id="184" name="data_add_1217912184" type="Convert" version="opset1">
			<data destination_type="f32"/>
			<rt_info>
				<attribute name="decompression" version="0"/>
				<attribute name="fused_names" version="0" value="data_add_1217912184"/>
			</rt_info>
			<input>
				<port id="0" precision="FP16">
					<dim>1</dim>
					<dim>144</dim>
					<dim>1</dim>
					<dim>1</dim>
				</port>
			</input>
			<output>
				<port id="1" precision="FP32">
					<dim>1</dim>
					<dim>144</dim>
					<dim>1</dim>
					<dim>1</dim>
				</port>
			</output>
		</layer>
		<layer id="185" name="sequential_8/sequential_5/model2/block_8_depthwise_BN/FusedBatchNormV3/variance/Fused_Add_" type="Add" version="opset1">
			<data auto_broadcast="numpy"/>
			<rt_info>
				<attribute name="fused_names" version="0" value="sequential_8/sequential_5/model2/block_8_depthwise_BN/FusedBatchNormV3/variance/Fused_Add_"/>
			</rt_info>
			<input>
				<port id="0" precision="FP32">
					<dim>1</dim>
					<dim>144</dim>
					<dim>14</dim>
					<dim>14</dim>
				</port>
				<port id="1" precision="FP32">
					<dim>1</dim>
					<dim>144</dim>
					<dim>1</dim>
					<dim>1</dim>
				</port>
			</input>
			<output>
				<port id="2" precision="FP32" names="sequential_8/sequential_5/model2/block_8_depthwise_BN/FusedBatchNormV3:0">
					<dim>1</dim>
					<dim>144</dim>
					<dim>14</dim>
					<dim>14</dim>
				</port>
			</output>
		</layer>
		<layer id="186" name="sequential_8/sequential_5/model2/block_8_depthwise_relu/Relu6" type="Clamp" version="opset1">
			<data min="0" max="6"/>
			<rt_info>
				<attribute name="fused_names" version="0" value="sequential_8/sequential_5/model2/block_8_depthwise_relu/Relu6"/>
			</rt_info>
			<input>
				<port id="0" precision="FP32">
					<dim>1</dim>
					<dim>144</dim>
					<dim>14</dim>
					<dim>14</dim>
				</port>
			</input>
			<output>
				<port id="1" precision="FP32" names="sequential_8/sequential_5/model2/block_8_depthwise_relu/Relu6:0">
					<dim>1</dim>
					<dim>144</dim>
					<dim>14</dim>
					<dim>14</dim>
				</port>
			</output>
		</layer>
		<layer id="187" name="sequential_8/sequential_5/model2/block_8_project_BN/FusedBatchNormV3/mean/Fused_Mul__copy_compressed" type="Const" version="opset1">
			<data element_type="f16" shape="24, 144, 1, 1" offset="63672" size="6912"/>
			<output>
				<port id="0" precision="FP16">
					<dim>24</dim>
					<dim>144</dim>
					<dim>1</dim>
					<dim>1</dim>
				</port>
			</output>
		</layer>
		<layer id="188" name="sequential_8/sequential_5/model2/block_8_project_BN/FusedBatchNormV3/mean/Fused_Mul__copy" type="Convert" version="opset1">
			<data destination_type="f32"/>
			<rt_info>
				<attribute name="decompression" version="0"/>
				<attribute name="fused_names" version="0" value="sequential_8/sequential_5/model2/block_8_project_BN/FusedBatchNormV3/mean/Fused_Mul__copy"/>
			</rt_info>
			<input>
				<port id="0" precision="FP16">
					<dim>24</dim>
					<dim>144</dim>
					<dim>1</dim>
					<dim>1</dim>
				</port>
			</input>
			<output>
				<port id="1" precision="FP32" names="sequential_8/sequential_5/model2/block_8_project/Conv2D/ReadVariableOp:0">
					<dim>24</dim>
					<dim>144</dim>
					<dim>1</dim>
					<dim>1</dim>
				</port>
			</output>
		</layer>
		<layer id="189" name="sequential_8/sequential_5/model2/block_8_project/Conv2D" type="Convolution" version="opset1">
			<data strides="1, 1" dilations="1, 1" pads_begin="0, 0" pads_end="0, 0" auto_pad="same_upper"/>
			<rt_info>
				<attribute name="fused_names" version="0" value="sequential_8/sequential_5/model2/block_8_project/Conv2D"/>
			</rt_info>
			<input>
				<port id="0" precision="FP32">
					<dim>1</dim>
					<dim>144</dim>
					<dim>14</dim>
					<dim>14</dim>
				</port>
				<port id="1" precision="FP32">
					<dim>24</dim>
					<dim>144</dim>
					<dim>1</dim>
					<dim>1</dim>
				</port>
			</input>
			<output>
				<port id="2" precision="FP32">
					<dim>1</dim>
					<dim>24</dim>
					<dim>14</dim>
					<dim>14</dim>
				</port>
			</output>
		</layer>
		<layer id="190" name="data_add_1218712192_compressed" type="Const" version="opset1">
			<data element_type="f16" shape="1, 24, 1, 1" offset="70584" size="48"/>
			<output>
				<port id="0" precision="FP16">
					<dim>1</dim>
					<dim>24</dim>
					<dim>1</dim>
					<dim>1</dim>
				</port>
			</output>
		</layer>
		<layer id="191" name="data_add_1218712192" type="Convert" version="opset1">
			<data destination_type="f32"/>
			<rt_info>
				<attribute name="decompression" version="0"/>
				<attribute name="fused_names" version="0" value="data_add_1218712192"/>
			</rt_info>
			<input>
				<port id="0" precision="FP16">
					<dim>1</dim>
					<dim>24</dim>
					<dim>1</dim>
					<dim>1</dim>
				</port>
			</input>
			<output>
				<port id="1" precision="FP32">
					<dim>1</dim>
					<dim>24</dim>
					<dim>1</dim>
					<dim>1</dim>
				</port>
			</output>
		</layer>
		<layer id="192" name="sequential_8/sequential_5/model2/block_8_project_BN/FusedBatchNormV3/variance/Fused_Add_" type="Add" version="opset1">
			<data auto_broadcast="numpy"/>
			<rt_info>
				<attribute name="fused_names" version="0" value="sequential_8/sequential_5/model2/block_8_project_BN/FusedBatchNormV3/variance/Fused_Add_"/>
			</rt_info>
			<input>
				<port id="0" precision="FP32">
					<dim>1</dim>
					<dim>24</dim>
					<dim>14</dim>
					<dim>14</dim>
				</port>
				<port id="1" precision="FP32">
					<dim>1</dim>
					<dim>24</dim>
					<dim>1</dim>
					<dim>1</dim>
				</port>
			</input>
			<output>
				<port id="2" precision="FP32" names="sequential_8/sequential_5/model2/block_8_project_BN/FusedBatchNormV3:0">
					<dim>1</dim>
					<dim>24</dim>
					<dim>14</dim>
					<dim>14</dim>
				</port>
			</output>
		</layer>
		<layer id="193" name="sequential_8/sequential_5/model2/block_8_add/add" type="Add" version="opset1">
			<data auto_broadcast="numpy"/>
			<rt_info>
				<attribute name="fused_names" version="0" value="sequential_8/sequential_5/model2/block_8_add/add"/>
			</rt_info>
			<input>
				<port id="0" precision="FP32">
					<dim>1</dim>
					<dim>24</dim>
					<dim>14</dim>
					<dim>14</dim>
				</port>
				<port id="1" precision="FP32">
					<dim>1</dim>
					<dim>24</dim>
					<dim>14</dim>
					<dim>14</dim>
				</port>
			</input>
			<output>
				<port id="2" precision="FP32" names="sequential_8/sequential_5/model2/block_8_add/add:0">
					<dim>1</dim>
					<dim>24</dim>
					<dim>14</dim>
					<dim>14</dim>
				</port>
			</output>
		</layer>
		<layer id="194" name="sequential_8/sequential_5/model2/block_9_expand_BN/FusedBatchNormV3/mean/Fused_Mul__copy_compressed" type="Const" version="opset1">
			<data element_type="f16" shape="144, 24, 1, 1" offset="70632" size="6912"/>
			<output>
				<port id="0" precision="FP16">
					<dim>144</dim>
					<dim>24</dim>
					<dim>1</dim>
					<dim>1</dim>
				</port>
			</output>
		</layer>
		<layer id="195" name="sequential_8/sequential_5/model2/block_9_expand_BN/FusedBatchNormV3/mean/Fused_Mul__copy" type="Convert" version="opset1">
			<data destination_type="f32"/>
			<rt_info>
				<attribute name="decompression" version="0"/>
				<attribute name="fused_names" version="0" value="sequential_8/sequential_5/model2/block_9_expand_BN/FusedBatchNormV3/mean/Fused_Mul__copy"/>
			</rt_info>
			<input>
				<port id="0" precision="FP16">
					<dim>144</dim>
					<dim>24</dim>
					<dim>1</dim>
					<dim>1</dim>
				</port>
			</input>
			<output>
				<port id="1" precision="FP32" names="sequential_8/sequential_5/model2/block_9_expand/Conv2D/ReadVariableOp:0">
					<dim>144</dim>
					<dim>24</dim>
					<dim>1</dim>
					<dim>1</dim>
				</port>
			</output>
		</layer>
		<layer id="196" name="sequential_8/sequential_5/model2/block_9_expand/Conv2D" type="Convolution" version="opset1">
			<data strides="1, 1" dilations="1, 1" pads_begin="0, 0" pads_end="0, 0" auto_pad="same_upper"/>
			<rt_info>
				<attribute name="fused_names" version="0" value="sequential_8/sequential_5/model2/block_9_expand/Conv2D"/>
			</rt_info>
			<input>
				<port id="0" precision="FP32">
					<dim>1</dim>
					<dim>24</dim>
					<dim>14</dim>
					<dim>14</dim>
				</port>
				<port id="1" precision="FP32">
					<dim>144</dim>
					<dim>24</dim>
					<dim>1</dim>
					<dim>1</dim>
				</port>
			</input>
			<output>
				<port id="2" precision="FP32">
					<dim>1</dim>
					<dim>144</dim>
					<dim>14</dim>
					<dim>14</dim>
				</port>
			</output>
		</layer>
		<layer id="197" name="data_add_1219512200_compressed" type="Const" version="opset1">
			<data element_type="f16" shape="1, 144, 1, 1" offset="77544" size="288"/>
			<output>
				<port id="0" precision="FP16">
					<dim>1</dim>
					<dim>144</dim>
					<dim>1</dim>
					<dim>1</dim>
				</port>
			</output>
		</layer>
		<layer id="198" name="data_add_1219512200" type="Convert" version="opset1">
			<data destination_type="f32"/>
			<rt_info>
				<attribute name="decompression" version="0"/>
				<attribute name="fused_names" version="0" value="data_add_1219512200"/>
			</rt_info>
			<input>
				<port id="0" precision="FP16">
					<dim>1</dim>
					<dim>144</dim>
					<dim>1</dim>
					<dim>1</dim>
				</port>
			</input>
			<output>
				<port id="1" precision="FP32">
					<dim>1</dim>
					<dim>144</dim>
					<dim>1</dim>
					<dim>1</dim>
				</port>
			</output>
		</layer>
		<layer id="199" name="sequential_8/sequential_5/model2/block_9_expand_BN/FusedBatchNormV3/variance/Fused_Add_" type="Add" version="opset1">
			<data auto_broadcast="numpy"/>
			<rt_info>
				<attribute name="fused_names" version="0" value="sequential_8/sequential_5/model2/block_9_expand_BN/FusedBatchNormV3/variance/Fused_Add_"/>
			</rt_info>
			<input>
				<port id="0" precision="FP32">
					<dim>1</dim>
					<dim>144</dim>
					<dim>14</dim>
					<dim>14</dim>
				</port>
				<port id="1" precision="FP32">
					<dim>1</dim>
					<dim>144</dim>
					<dim>1</dim>
					<dim>1</dim>
				</port>
			</input>
			<output>
				<port id="2" precision="FP32" names="sequential_8/sequential_5/model2/block_9_expand_BN/FusedBatchNormV3:0">
					<dim>1</dim>
					<dim>144</dim>
					<dim>14</dim>
					<dim>14</dim>
				</port>
			</output>
		</layer>
		<layer id="200" name="sequential_8/sequential_5/model2/block_9_expand_relu/Relu6" type="Clamp" version="opset1">
			<data min="0" max="6"/>
			<rt_info>
				<attribute name="fused_names" version="0" value="sequential_8/sequential_5/model2/block_9_expand_relu/Relu6"/>
			</rt_info>
			<input>
				<port id="0" precision="FP32">
					<dim>1</dim>
					<dim>144</dim>
					<dim>14</dim>
					<dim>14</dim>
				</port>
			</input>
			<output>
				<port id="1" precision="FP32" names="sequential_8/sequential_5/model2/block_9_expand_relu/Relu6:0">
					<dim>1</dim>
					<dim>144</dim>
					<dim>14</dim>
					<dim>14</dim>
				</port>
			</output>
		</layer>
		<layer id="201" name="sequential_8/sequential_5/model2/block_9_depthwise_BN/FusedBatchNormV3/mean/Fused_Mul__copy_compressed" type="Const" version="opset1">
			<data element_type="f16" shape="144, 1, 1, 3, 3" offset="77832" size="2592"/>
			<output>
				<port id="0" precision="FP16">
					<dim>144</dim>
					<dim>1</dim>
					<dim>1</dim>
					<dim>3</dim>
					<dim>3</dim>
				</port>
			</output>
		</layer>
		<layer id="202" name="sequential_8/sequential_5/model2/block_9_depthwise_BN/FusedBatchNormV3/mean/Fused_Mul__copy" type="Convert" version="opset1">
			<data destination_type="f32"/>
			<rt_info>
				<attribute name="decompression" version="0"/>
				<attribute name="fused_names" version="0" value="sequential_8/sequential_5/model2/block_9_depthwise_BN/FusedBatchNormV3/mean/Fused_Mul__copy"/>
			</rt_info>
			<input>
				<port id="0" precision="FP16">
					<dim>144</dim>
					<dim>1</dim>
					<dim>1</dim>
					<dim>3</dim>
					<dim>3</dim>
				</port>
			</input>
			<output>
				<port id="1" precision="FP32" names="sequential_8/sequential_5/model2/block_9_depthwise/depthwise/ReadVariableOp:0">
					<dim>144</dim>
					<dim>1</dim>
					<dim>1</dim>
					<dim>3</dim>
					<dim>3</dim>
				</port>
			</output>
		</layer>
		<layer id="203" name="sequential_8/sequential_5/model2/block_9_depthwise/depthwise" type="GroupConvolution" version="opset1">
			<data strides="1, 1" pads_begin="0, 0" pads_end="0, 0" dilations="1, 1" auto_pad="same_upper"/>
			<rt_info>
				<attribute name="fused_names" version="0" value="sequential_8/sequential_5/model2/block_9_depthwise/depthwise"/>
			</rt_info>
			<input>
				<port id="0" precision="FP32">
					<dim>1</dim>
					<dim>144</dim>
					<dim>14</dim>
					<dim>14</dim>
				</port>
				<port id="1" precision="FP32">
					<dim>144</dim>
					<dim>1</dim>
					<dim>1</dim>
					<dim>3</dim>
					<dim>3</dim>
				</port>
			</input>
			<output>
				<port id="2" precision="FP32">
					<dim>1</dim>
					<dim>144</dim>
					<dim>14</dim>
					<dim>14</dim>
				</port>
			</output>
		</layer>
		<layer id="204" name="data_add_1220312208_compressed" type="Const" version="opset1">
			<data element_type="f16" shape="1, 144, 1, 1" offset="80424" size="288"/>
			<output>
				<port id="0" precision="FP16">
					<dim>1</dim>
					<dim>144</dim>
					<dim>1</dim>
					<dim>1</dim>
				</port>
			</output>
		</layer>
		<layer id="205" name="data_add_1220312208" type="Convert" version="opset1">
			<data destination_type="f32"/>
			<rt_info>
				<attribute name="decompression" version="0"/>
				<attribute name="fused_names" version="0" value="data_add_1220312208"/>
			</rt_info>
			<input>
				<port id="0" precision="FP16">
					<dim>1</dim>
					<dim>144</dim>
					<dim>1</dim>
					<dim>1</dim>
				</port>
			</input>
			<output>
				<port id="1" precision="FP32">
					<dim>1</dim>
					<dim>144</dim>
					<dim>1</dim>
					<dim>1</dim>
				</port>
			</output>
		</layer>
		<layer id="206" name="sequential_8/sequential_5/model2/block_9_depthwise_BN/FusedBatchNormV3/variance/Fused_Add_" type="Add" version="opset1">
			<data auto_broadcast="numpy"/>
			<rt_info>
				<attribute name="fused_names" version="0" value="sequential_8/sequential_5/model2/block_9_depthwise_BN/FusedBatchNormV3/variance/Fused_Add_"/>
			</rt_info>
			<input>
				<port id="0" precision="FP32">
					<dim>1</dim>
					<dim>144</dim>
					<dim>14</dim>
					<dim>14</dim>
				</port>
				<port id="1" precision="FP32">
					<dim>1</dim>
					<dim>144</dim>
					<dim>1</dim>
					<dim>1</dim>
				</port>
			</input>
			<output>
				<port id="2" precision="FP32" names="sequential_8/sequential_5/model2/block_9_depthwise_BN/FusedBatchNormV3:0">
					<dim>1</dim>
					<dim>144</dim>
					<dim>14</dim>
					<dim>14</dim>
				</port>
			</output>
		</layer>
		<layer id="207" name="sequential_8/sequential_5/model2/block_9_depthwise_relu/Relu6" type="Clamp" version="opset1">
			<data min="0" max="6"/>
			<rt_info>
				<attribute name="fused_names" version="0" value="sequential_8/sequential_5/model2/block_9_depthwise_relu/Relu6"/>
			</rt_info>
			<input>
				<port id="0" precision="FP32">
					<dim>1</dim>
					<dim>144</dim>
					<dim>14</dim>
					<dim>14</dim>
				</port>
			</input>
			<output>
				<port id="1" precision="FP32" names="sequential_8/sequential_5/model2/block_9_depthwise_relu/Relu6:0">
					<dim>1</dim>
					<dim>144</dim>
					<dim>14</dim>
					<dim>14</dim>
				</port>
			</output>
		</layer>
		<layer id="208" name="sequential_8/sequential_5/model2/block_9_project_BN/FusedBatchNormV3/mean/Fused_Mul__copy_compressed" type="Const" version="opset1">
			<data element_type="f16" shape="24, 144, 1, 1" offset="80712" size="6912"/>
			<output>
				<port id="0" precision="FP16">
					<dim>24</dim>
					<dim>144</dim>
					<dim>1</dim>
					<dim>1</dim>
				</port>
			</output>
		</layer>
		<layer id="209" name="sequential_8/sequential_5/model2/block_9_project_BN/FusedBatchNormV3/mean/Fused_Mul__copy" type="Convert" version="opset1">
			<data destination_type="f32"/>
			<rt_info>
				<attribute name="decompression" version="0"/>
				<attribute name="fused_names" version="0" value="sequential_8/sequential_5/model2/block_9_project_BN/FusedBatchNormV3/mean/Fused_Mul__copy"/>
			</rt_info>
			<input>
				<port id="0" precision="FP16">
					<dim>24</dim>
					<dim>144</dim>
					<dim>1</dim>
					<dim>1</dim>
				</port>
			</input>
			<output>
				<port id="1" precision="FP32" names="sequential_8/sequential_5/model2/block_9_project/Conv2D/ReadVariableOp:0">
					<dim>24</dim>
					<dim>144</dim>
					<dim>1</dim>
					<dim>1</dim>
				</port>
			</output>
		</layer>
		<layer id="210" name="sequential_8/sequential_5/model2/block_9_project/Conv2D" type="Convolution" version="opset1">
			<data strides="1, 1" dilations="1, 1" pads_begin="0, 0" pads_end="0, 0" auto_pad="same_upper"/>
			<rt_info>
				<attribute name="fused_names" version="0" value="sequential_8/sequential_5/model2/block_9_project/Conv2D"/>
			</rt_info>
			<input>
				<port id="0" precision="FP32">
					<dim>1</dim>
					<dim>144</dim>
					<dim>14</dim>
					<dim>14</dim>
				</port>
				<port id="1" precision="FP32">
					<dim>24</dim>
					<dim>144</dim>
					<dim>1</dim>
					<dim>1</dim>
				</port>
			</input>
			<output>
				<port id="2" precision="FP32">
					<dim>1</dim>
					<dim>24</dim>
					<dim>14</dim>
					<dim>14</dim>
				</port>
			</output>
		</layer>
		<layer id="211" name="data_add_1221112216_compressed" type="Const" version="opset1">
			<data element_type="f16" shape="1, 24, 1, 1" offset="87624" size="48"/>
			<output>
				<port id="0" precision="FP16">
					<dim>1</dim>
					<dim>24</dim>
					<dim>1</dim>
					<dim>1</dim>
				</port>
			</output>
		</layer>
		<layer id="212" name="data_add_1221112216" type="Convert" version="opset1">
			<data destination_type="f32"/>
			<rt_info>
				<attribute name="decompression" version="0"/>
				<attribute name="fused_names" version="0" value="data_add_1221112216"/>
			</rt_info>
			<input>
				<port id="0" precision="FP16">
					<dim>1</dim>
					<dim>24</dim>
					<dim>1</dim>
					<dim>1</dim>
				</port>
			</input>
			<output>
				<port id="1" precision="FP32">
					<dim>1</dim>
					<dim>24</dim>
					<dim>1</dim>
					<dim>1</dim>
				</port>
			</output>
		</layer>
		<layer id="213" name="sequential_8/sequential_5/model2/block_9_project_BN/FusedBatchNormV3/variance/Fused_Add_" type="Add" version="opset1">
			<data auto_broadcast="numpy"/>
			<rt_info>
				<attribute name="fused_names" version="0" value="sequential_8/sequential_5/model2/block_9_project_BN/FusedBatchNormV3/variance/Fused_Add_"/>
			</rt_info>
			<input>
				<port id="0" precision="FP32">
					<dim>1</dim>
					<dim>24</dim>
					<dim>14</dim>
					<dim>14</dim>
				</port>
				<port id="1" precision="FP32">
					<dim>1</dim>
					<dim>24</dim>
					<dim>1</dim>
					<dim>1</dim>
				</port>
			</input>
			<output>
				<port id="2" precision="FP32" names="sequential_8/sequential_5/model2/block_9_project_BN/FusedBatchNormV3:0">
					<dim>1</dim>
					<dim>24</dim>
					<dim>14</dim>
					<dim>14</dim>
				</port>
			</output>
		</layer>
		<layer id="214" name="sequential_8/sequential_5/model2/block_9_add/add" type="Add" version="opset1">
			<data auto_broadcast="numpy"/>
			<rt_info>
				<attribute name="fused_names" version="0" value="sequential_8/sequential_5/model2/block_9_add/add"/>
			</rt_info>
			<input>
				<port id="0" precision="FP32">
					<dim>1</dim>
					<dim>24</dim>
					<dim>14</dim>
					<dim>14</dim>
				</port>
				<port id="1" precision="FP32">
					<dim>1</dim>
					<dim>24</dim>
					<dim>14</dim>
					<dim>14</dim>
				</port>
			</input>
			<output>
				<port id="2" precision="FP32" names="sequential_8/sequential_5/model2/block_9_add/add:0">
					<dim>1</dim>
					<dim>24</dim>
					<dim>14</dim>
					<dim>14</dim>
				</port>
			</output>
		</layer>
		<layer id="215" name="sequential_8/sequential_5/model2/block_10_expand_BN/FusedBatchNormV3/mean/Fused_Mul__copy_compressed" type="Const" version="opset1">
			<data element_type="f16" shape="144, 24, 1, 1" offset="87672" size="6912"/>
			<output>
				<port id="0" precision="FP16">
					<dim>144</dim>
					<dim>24</dim>
					<dim>1</dim>
					<dim>1</dim>
				</port>
			</output>
		</layer>
		<layer id="216" name="sequential_8/sequential_5/model2/block_10_expand_BN/FusedBatchNormV3/mean/Fused_Mul__copy" type="Convert" version="opset1">
			<data destination_type="f32"/>
			<rt_info>
				<attribute name="decompression" version="0"/>
				<attribute name="fused_names" version="0" value="sequential_8/sequential_5/model2/block_10_expand_BN/FusedBatchNormV3/mean/Fused_Mul__copy"/>
			</rt_info>
			<input>
				<port id="0" precision="FP16">
					<dim>144</dim>
					<dim>24</dim>
					<dim>1</dim>
					<dim>1</dim>
				</port>
			</input>
			<output>
				<port id="1" precision="FP32" names="sequential_8/sequential_5/model2/block_10_expand/Conv2D/ReadVariableOp:0">
					<dim>144</dim>
					<dim>24</dim>
					<dim>1</dim>
					<dim>1</dim>
				</port>
			</output>
		</layer>
		<layer id="217" name="sequential_8/sequential_5/model2/block_10_expand/Conv2D" type="Convolution" version="opset1">
			<data strides="1, 1" dilations="1, 1" pads_begin="0, 0" pads_end="0, 0" auto_pad="same_upper"/>
			<rt_info>
				<attribute name="fused_names" version="0" value="sequential_8/sequential_5/model2/block_10_expand/Conv2D"/>
			</rt_info>
			<input>
				<port id="0" precision="FP32">
					<dim>1</dim>
					<dim>24</dim>
					<dim>14</dim>
					<dim>14</dim>
				</port>
				<port id="1" precision="FP32">
					<dim>144</dim>
					<dim>24</dim>
					<dim>1</dim>
					<dim>1</dim>
				</port>
			</input>
			<output>
				<port id="2" precision="FP32">
					<dim>1</dim>
					<dim>144</dim>
					<dim>14</dim>
					<dim>14</dim>
				</port>
			</output>
		</layer>
		<layer id="218" name="data_add_1221912224_compressed" type="Const" version="opset1">
			<data element_type="f16" shape="1, 144, 1, 1" offset="94584" size="288"/>
			<output>
				<port id="0" precision="FP16">
					<dim>1</dim>
					<dim>144</dim>
					<dim>1</dim>
					<dim>1</dim>
				</port>
			</output>
		</layer>
		<layer id="219" name="data_add_1221912224" type="Convert" version="opset1">
			<data destination_type="f32"/>
			<rt_info>
				<attribute name="decompression" version="0"/>
				<attribute name="fused_names" version="0" value="data_add_1221912224"/>
			</rt_info>
			<input>
				<port id="0" precision="FP16">
					<dim>1</dim>
					<dim>144</dim>
					<dim>1</dim>
					<dim>1</dim>
				</port>
			</input>
			<output>
				<port id="1" precision="FP32">
					<dim>1</dim>
					<dim>144</dim>
					<dim>1</dim>
					<dim>1</dim>
				</port>
			</output>
		</layer>
		<layer id="220" name="sequential_8/sequential_5/model2/block_10_expand_BN/FusedBatchNormV3/variance/Fused_Add_" type="Add" version="opset1">
			<data auto_broadcast="numpy"/>
			<rt_info>
				<attribute name="fused_names" version="0" value="sequential_8/sequential_5/model2/block_10_expand_BN/FusedBatchNormV3/variance/Fused_Add_"/>
			</rt_info>
			<input>
				<port id="0" precision="FP32">
					<dim>1</dim>
					<dim>144</dim>
					<dim>14</dim>
					<dim>14</dim>
				</port>
				<port id="1" precision="FP32">
					<dim>1</dim>
					<dim>144</dim>
					<dim>1</dim>
					<dim>1</dim>
				</port>
			</input>
			<output>
				<port id="2" precision="FP32" names="sequential_8/sequential_5/model2/block_10_expand_BN/FusedBatchNormV3:0">
					<dim>1</dim>
					<dim>144</dim>
					<dim>14</dim>
					<dim>14</dim>
				</port>
			</output>
		</layer>
		<layer id="221" name="sequential_8/sequential_5/model2/block_10_expand_relu/Relu6" type="Clamp" version="opset1">
			<data min="0" max="6"/>
			<rt_info>
				<attribute name="fused_names" version="0" value="sequential_8/sequential_5/model2/block_10_expand_relu/Relu6"/>
			</rt_info>
			<input>
				<port id="0" precision="FP32">
					<dim>1</dim>
					<dim>144</dim>
					<dim>14</dim>
					<dim>14</dim>
				</port>
			</input>
			<output>
				<port id="1" precision="FP32" names="sequential_8/sequential_5/model2/block_10_expand_relu/Relu6:0">
					<dim>1</dim>
					<dim>144</dim>
					<dim>14</dim>
					<dim>14</dim>
				</port>
			</output>
		</layer>
		<layer id="222" name="sequential_8/sequential_5/model2/block_10_depthwise_BN/FusedBatchNormV3/mean/Fused_Mul__copy_compressed" type="Const" version="opset1">
			<data element_type="f16" shape="144, 1, 1, 3, 3" offset="94872" size="2592"/>
			<output>
				<port id="0" precision="FP16">
					<dim>144</dim>
					<dim>1</dim>
					<dim>1</dim>
					<dim>3</dim>
					<dim>3</dim>
				</port>
			</output>
		</layer>
		<layer id="223" name="sequential_8/sequential_5/model2/block_10_depthwise_BN/FusedBatchNormV3/mean/Fused_Mul__copy" type="Convert" version="opset1">
			<data destination_type="f32"/>
			<rt_info>
				<attribute name="decompression" version="0"/>
				<attribute name="fused_names" version="0" value="sequential_8/sequential_5/model2/block_10_depthwise_BN/FusedBatchNormV3/mean/Fused_Mul__copy"/>
			</rt_info>
			<input>
				<port id="0" precision="FP16">
					<dim>144</dim>
					<dim>1</dim>
					<dim>1</dim>
					<dim>3</dim>
					<dim>3</dim>
				</port>
			</input>
			<output>
				<port id="1" precision="FP32" names="sequential_8/sequential_5/model2/block_10_depthwise/depthwise/ReadVariableOp:0">
					<dim>144</dim>
					<dim>1</dim>
					<dim>1</dim>
					<dim>3</dim>
					<dim>3</dim>
				</port>
			</output>
		</layer>
		<layer id="224" name="sequential_8/sequential_5/model2/block_10_depthwise/depthwise" type="GroupConvolution" version="opset1">
			<data strides="1, 1" pads_begin="0, 0" pads_end="0, 0" dilations="1, 1" auto_pad="same_upper"/>
			<rt_info>
				<attribute name="fused_names" version="0" value="sequential_8/sequential_5/model2/block_10_depthwise/depthwise"/>
			</rt_info>
			<input>
				<port id="0" precision="FP32">
					<dim>1</dim>
					<dim>144</dim>
					<dim>14</dim>
					<dim>14</dim>
				</port>
				<port id="1" precision="FP32">
					<dim>144</dim>
					<dim>1</dim>
					<dim>1</dim>
					<dim>3</dim>
					<dim>3</dim>
				</port>
			</input>
			<output>
				<port id="2" precision="FP32">
					<dim>1</dim>
					<dim>144</dim>
					<dim>14</dim>
					<dim>14</dim>
				</port>
			</output>
		</layer>
		<layer id="225" name="data_add_1222712232_compressed" type="Const" version="opset1">
			<data element_type="f16" shape="1, 144, 1, 1" offset="97464" size="288"/>
			<output>
				<port id="0" precision="FP16">
					<dim>1</dim>
					<dim>144</dim>
					<dim>1</dim>
					<dim>1</dim>
				</port>
			</output>
		</layer>
		<layer id="226" name="data_add_1222712232" type="Convert" version="opset1">
			<data destination_type="f32"/>
			<rt_info>
				<attribute name="decompression" version="0"/>
				<attribute name="fused_names" version="0" value="data_add_1222712232"/>
			</rt_info>
			<input>
				<port id="0" precision="FP16">
					<dim>1</dim>
					<dim>144</dim>
					<dim>1</dim>
					<dim>1</dim>
				</port>
			</input>
			<output>
				<port id="1" precision="FP32">
					<dim>1</dim>
					<dim>144</dim>
					<dim>1</dim>
					<dim>1</dim>
				</port>
			</output>
		</layer>
		<layer id="227" name="sequential_8/sequential_5/model2/block_10_depthwise_BN/FusedBatchNormV3/variance/Fused_Add_" type="Add" version="opset1">
			<data auto_broadcast="numpy"/>
			<rt_info>
				<attribute name="fused_names" version="0" value="sequential_8/sequential_5/model2/block_10_depthwise_BN/FusedBatchNormV3/variance/Fused_Add_"/>
			</rt_info>
			<input>
				<port id="0" precision="FP32">
					<dim>1</dim>
					<dim>144</dim>
					<dim>14</dim>
					<dim>14</dim>
				</port>
				<port id="1" precision="FP32">
					<dim>1</dim>
					<dim>144</dim>
					<dim>1</dim>
					<dim>1</dim>
				</port>
			</input>
			<output>
				<port id="2" precision="FP32" names="sequential_8/sequential_5/model2/block_10_depthwise_BN/FusedBatchNormV3:0">
					<dim>1</dim>
					<dim>144</dim>
					<dim>14</dim>
					<dim>14</dim>
				</port>
			</output>
		</layer>
		<layer id="228" name="sequential_8/sequential_5/model2/block_10_depthwise_relu/Relu6" type="Clamp" version="opset1">
			<data min="0" max="6"/>
			<rt_info>
				<attribute name="fused_names" version="0" value="sequential_8/sequential_5/model2/block_10_depthwise_relu/Relu6"/>
			</rt_info>
			<input>
				<port id="0" precision="FP32">
					<dim>1</dim>
					<dim>144</dim>
					<dim>14</dim>
					<dim>14</dim>
				</port>
			</input>
			<output>
				<port id="1" precision="FP32" names="sequential_8/sequential_5/model2/block_10_depthwise_relu/Relu6:0">
					<dim>1</dim>
					<dim>144</dim>
					<dim>14</dim>
					<dim>14</dim>
				</port>
			</output>
		</layer>
		<layer id="229" name="sequential_8/sequential_5/model2/block_10_project_BN/FusedBatchNormV3/mean/Fused_Mul__copy_compressed" type="Const" version="opset1">
			<data element_type="f16" shape="32, 144, 1, 1" offset="97752" size="9216"/>
			<output>
				<port id="0" precision="FP16">
					<dim>32</dim>
					<dim>144</dim>
					<dim>1</dim>
					<dim>1</dim>
				</port>
			</output>
		</layer>
		<layer id="230" name="sequential_8/sequential_5/model2/block_10_project_BN/FusedBatchNormV3/mean/Fused_Mul__copy" type="Convert" version="opset1">
			<data destination_type="f32"/>
			<rt_info>
				<attribute name="decompression" version="0"/>
				<attribute name="fused_names" version="0" value="sequential_8/sequential_5/model2/block_10_project_BN/FusedBatchNormV3/mean/Fused_Mul__copy"/>
			</rt_info>
			<input>
				<port id="0" precision="FP16">
					<dim>32</dim>
					<dim>144</dim>
					<dim>1</dim>
					<dim>1</dim>
				</port>
			</input>
			<output>
				<port id="1" precision="FP32" names="sequential_8/sequential_5/model2/block_10_project/Conv2D/ReadVariableOp:0">
					<dim>32</dim>
					<dim>144</dim>
					<dim>1</dim>
					<dim>1</dim>
				</port>
			</output>
		</layer>
		<layer id="231" name="sequential_8/sequential_5/model2/block_10_project/Conv2D" type="Convolution" version="opset1">
			<data strides="1, 1" dilations="1, 1" pads_begin="0, 0" pads_end="0, 0" auto_pad="same_upper"/>
			<rt_info>
				<attribute name="fused_names" version="0" value="sequential_8/sequential_5/model2/block_10_project/Conv2D"/>
			</rt_info>
			<input>
				<port id="0" precision="FP32">
					<dim>1</dim>
					<dim>144</dim>
					<dim>14</dim>
					<dim>14</dim>
				</port>
				<port id="1" precision="FP32">
					<dim>32</dim>
					<dim>144</dim>
					<dim>1</dim>
					<dim>1</dim>
				</port>
			</input>
			<output>
				<port id="2" precision="FP32">
					<dim>1</dim>
					<dim>32</dim>
					<dim>14</dim>
					<dim>14</dim>
				</port>
			</output>
		</layer>
		<layer id="232" name="data_add_1223512240_compressed" type="Const" version="opset1">
			<data element_type="f16" shape="1, 32, 1, 1" offset="106968" size="64"/>
			<output>
				<port id="0" precision="FP16">
					<dim>1</dim>
					<dim>32</dim>
					<dim>1</dim>
					<dim>1</dim>
				</port>
			</output>
		</layer>
		<layer id="233" name="data_add_1223512240" type="Convert" version="opset1">
			<data destination_type="f32"/>
			<rt_info>
				<attribute name="decompression" version="0"/>
				<attribute name="fused_names" version="0" value="data_add_1223512240"/>
			</rt_info>
			<input>
				<port id="0" precision="FP16">
					<dim>1</dim>
					<dim>32</dim>
					<dim>1</dim>
					<dim>1</dim>
				</port>
			</input>
			<output>
				<port id="1" precision="FP32">
					<dim>1</dim>
					<dim>32</dim>
					<dim>1</dim>
					<dim>1</dim>
				</port>
			</output>
		</layer>
		<layer id="234" name="sequential_8/sequential_5/model2/block_10_project_BN/FusedBatchNormV3/variance/Fused_Add_" type="Add" version="opset1">
			<data auto_broadcast="numpy"/>
			<rt_info>
				<attribute name="fused_names" version="0" value="sequential_8/sequential_5/model2/block_10_project_BN/FusedBatchNormV3/variance/Fused_Add_"/>
			</rt_info>
			<input>
				<port id="0" precision="FP32">
					<dim>1</dim>
					<dim>32</dim>
					<dim>14</dim>
					<dim>14</dim>
				</port>
				<port id="1" precision="FP32">
					<dim>1</dim>
					<dim>32</dim>
					<dim>1</dim>
					<dim>1</dim>
				</port>
			</input>
			<output>
				<port id="2" precision="FP32" names="sequential_8/sequential_5/model2/block_10_project_BN/FusedBatchNormV3:0">
					<dim>1</dim>
					<dim>32</dim>
					<dim>14</dim>
					<dim>14</dim>
				</port>
			</output>
		</layer>
		<layer id="235" name="sequential_8/sequential_5/model2/block_11_expand_BN/FusedBatchNormV3/mean/Fused_Mul__copy_compressed" type="Const" version="opset1">
			<data element_type="f16" shape="192, 32, 1, 1" offset="107032" size="12288"/>
			<output>
				<port id="0" precision="FP16">
					<dim>192</dim>
					<dim>32</dim>
					<dim>1</dim>
					<dim>1</dim>
				</port>
			</output>
		</layer>
		<layer id="236" name="sequential_8/sequential_5/model2/block_11_expand_BN/FusedBatchNormV3/mean/Fused_Mul__copy" type="Convert" version="opset1">
			<data destination_type="f32"/>
			<rt_info>
				<attribute name="decompression" version="0"/>
				<attribute name="fused_names" version="0" value="sequential_8/sequential_5/model2/block_11_expand_BN/FusedBatchNormV3/mean/Fused_Mul__copy"/>
			</rt_info>
			<input>
				<port id="0" precision="FP16">
					<dim>192</dim>
					<dim>32</dim>
					<dim>1</dim>
					<dim>1</dim>
				</port>
			</input>
			<output>
				<port id="1" precision="FP32" names="sequential_8/sequential_5/model2/block_11_expand/Conv2D/ReadVariableOp:0">
					<dim>192</dim>
					<dim>32</dim>
					<dim>1</dim>
					<dim>1</dim>
				</port>
			</output>
		</layer>
		<layer id="237" name="sequential_8/sequential_5/model2/block_11_expand/Conv2D" type="Convolution" version="opset1">
			<data strides="1, 1" dilations="1, 1" pads_begin="0, 0" pads_end="0, 0" auto_pad="same_upper"/>
			<rt_info>
				<attribute name="fused_names" version="0" value="sequential_8/sequential_5/model2/block_11_expand/Conv2D"/>
			</rt_info>
			<input>
				<port id="0" precision="FP32">
					<dim>1</dim>
					<dim>32</dim>
					<dim>14</dim>
					<dim>14</dim>
				</port>
				<port id="1" precision="FP32">
					<dim>192</dim>
					<dim>32</dim>
					<dim>1</dim>
					<dim>1</dim>
				</port>
			</input>
			<output>
				<port id="2" precision="FP32">
					<dim>1</dim>
					<dim>192</dim>
					<dim>14</dim>
					<dim>14</dim>
				</port>
			</output>
		</layer>
		<layer id="238" name="data_add_1224312248_compressed" type="Const" version="opset1">
			<data element_type="f16" shape="1, 192, 1, 1" offset="119320" size="384"/>
			<output>
				<port id="0" precision="FP16">
					<dim>1</dim>
					<dim>192</dim>
					<dim>1</dim>
					<dim>1</dim>
				</port>
			</output>
		</layer>
		<layer id="239" name="data_add_1224312248" type="Convert" version="opset1">
			<data destination_type="f32"/>
			<rt_info>
				<attribute name="decompression" version="0"/>
				<attribute name="fused_names" version="0" value="data_add_1224312248"/>
			</rt_info>
			<input>
				<port id="0" precision="FP16">
					<dim>1</dim>
					<dim>192</dim>
					<dim>1</dim>
					<dim>1</dim>
				</port>
			</input>
			<output>
				<port id="1" precision="FP32">
					<dim>1</dim>
					<dim>192</dim>
					<dim>1</dim>
					<dim>1</dim>
				</port>
			</output>
		</layer>
		<layer id="240" name="sequential_8/sequential_5/model2/block_11_expand_BN/FusedBatchNormV3/variance/Fused_Add_" type="Add" version="opset1">
			<data auto_broadcast="numpy"/>
			<rt_info>
				<attribute name="fused_names" version="0" value="sequential_8/sequential_5/model2/block_11_expand_BN/FusedBatchNormV3/variance/Fused_Add_"/>
			</rt_info>
			<input>
				<port id="0" precision="FP32">
					<dim>1</dim>
					<dim>192</dim>
					<dim>14</dim>
…
		<layer id="344" name="sequential_8/sequential_5/model2/block_16_expand_BN/FusedBatchNormV3/variance/Fused_Add_" type="Add" version="opset1">
			<data auto_broadcast="numpy"/>
			<rt_info>
				<attribute name="fused_names" version="0" value="sequential_8/sequential_5/model2/block_16_expand_BN/FusedBatchNormV3/variance/Fused_Add_"/>
			</rt_info>
			<input>
				<port id="0" precision="FP32">
					<dim>1</dim>
					<dim>336</dim>
					<dim>7</dim>
					<dim>7</dim>
				</port>
				<port id="1" precision="FP32">
					<dim>1</dim>
					<dim>336</dim>
					<dim>1</dim>
					<dim>1</dim>
				</port>
			</input>
			<output>
				<port id="2" precision="FP32" names="sequential_8/sequential_5/model2/block_16_expand_BN/FusedBatchNormV3:0">
					<dim>1</dim>
					<dim>336</dim>
					<dim>7</dim>
					<dim>7</dim>
				</port>
			</output>
		</layer>
		<layer id="345" name="sequential_8/sequential_5/model2/block_16_expand_relu/Relu6" type="Clamp" version="opset1">
			<data min="0" max="6"/>
			<rt_info>
				<attribute name="fused_names" version="0" value="sequential_8/sequential_5/model2/block_16_expand_relu/Relu6"/>
			</rt_info>
			<input>
				<port id="0" precision="FP32">
					<dim>1</dim>
					<dim>336</dim>
					<dim>7</dim>
					<dim>7</dim>
				</port>
			</input>
			<output>
				<port id="1" precision="FP32" names="sequential_8/sequential_5/model2/block_16_expand_relu/Relu6:0">
					<dim>1</dim>
					<dim>336</dim>
					<dim>7</dim>
					<dim>7</dim>
				</port>
			</output>
		</layer>
		<layer id="346" name="sequential_8/sequential_5/model2/block_16_depthwise_BN/FusedBatchNormV3/mean/Fused_Mul__copy_compressed" type="Const" version="opset1">
			<data element_type="f16" shape="336, 1, 1, 3, 3" offset="406728" size="6048"/>
			<output>
				<port id="0" precision="FP16">
					<dim>336</dim>
					<dim>1</dim>
					<dim>1</dim>
					<dim>3</dim>
					<dim>3</dim>
				</port>
			</output>
		</layer>
		<layer id="347" name="sequential_8/sequential_5/model2/block_16_depthwise_BN/FusedBatchNormV3/mean/Fused_Mul__copy" type="Convert" version="opset1">
			<data destination_type="f32"/>
			<rt_info>
				<attribute name="decompression" version="0"/>
				<attribute name="fused_names" version="0" value="sequential_8/sequential_5/model2/block_16_depthwise_BN/FusedBatchNormV3/mean/Fused_Mul__copy"/>
			</rt_info>
			<input>
				<port id="0" precision="FP16">
					<dim>336</dim>
					<dim>1</dim>
					<dim>1</dim>
					<dim>3</dim>
					<dim>3</dim>
				</port>
			</input>
			<output>
				<port id="1" precision="FP32" names="sequential_8/sequential_5/model2/block_16_depthwise/depthwise/ReadVariableOp:0">
					<dim>336</dim>
					<dim>1</dim>
					<dim>1</dim>
					<dim>3</dim>
					<dim>3</dim>
				</port>
			</output>
		</layer>
		<layer id="348" name="sequential_8/sequential_5/model2/block_16_depthwise/depthwise" type="GroupConvolution" version="opset1">
			<data strides="1, 1" pads_begin="0, 0" pads_end="0, 0" dilations="1, 1" auto_pad="same_upper"/>
			<rt_info>
				<attribute name="fused_names" version="0" value="sequential_8/sequential_5/model2/block_16_depthwise/depthwise"/>
			</rt_info>
			<input>
				<port id="0" precision="FP32">
					<dim>1</dim>
					<dim>336</dim>
					<dim>7</dim>
					<dim>7</dim>
				</port>
				<port id="1" precision="FP32">
					<dim>336</dim>
					<dim>1</dim>
					<dim>1</dim>
					<dim>3</dim>
					<dim>3</dim>
				</port>
			</input>
			<output>
				<port id="2" precision="FP32">
					<dim>1</dim>
					<dim>336</dim>
					<dim>7</dim>
					<dim>7</dim>
				</port>
			</output>
		</layer>
		<layer id="349" name="data_add_1237112376_compressed" type="Const" version="opset1">
			<data element_type="f16" shape="1, 336, 1, 1" offset="412776" size="672"/>
			<output>
				<port id="0" precision="FP16">
					<dim>1</dim>
					<dim>336</dim>
					<dim>1</dim>
					<dim>1</dim>
				</port>
			</output>
		</layer>
		<layer id="350" name="data_add_1237112376" type="Convert" version="opset1">
			<data destination_type="f32"/>
			<rt_info>
				<attribute name="decompression" version="0"/>
				<attribute name="fused_names" version="0" value="data_add_1237112376"/>
			</rt_info>
			<input>
				<port id="0" precision="FP16">
					<dim>1</dim>
					<dim>336</dim>
					<dim>1</dim>
					<dim>1</dim>
				</port>
			</input>
			<output>
				<port id="1" precision="FP32">
					<dim>1</dim>
					<dim>336</dim>
					<dim>1</dim>
					<dim>1</dim>
				</port>
			</output>
		</layer>
		<layer id="351" name="sequential_8/sequential_5/model2/block_16_depthwise_BN/FusedBatchNormV3/variance/Fused_Add_" type="Add" version="opset1">
			<data auto_broadcast="numpy"/>
			<rt_info>
				<attribute name="fused_names" version="0" value="sequential_8/sequential_5/model2/block_16_depthwise_BN/FusedBatchNormV3/variance/Fused_Add_"/>
			</rt_info>
			<input>
				<port id="0" precision="FP32">
					<dim>1</dim>
					<dim>336</dim>
					<dim>7</dim>
					<dim>7</dim>
				</port>
				<port id="1" precision="FP32">
					<dim>1</dim>
					<dim>336</dim>
					<dim>1</dim>
					<dim>1</dim>
				</port>
			</input>
			<output>
				<port id="2" precision="FP32" names="sequential_8/sequential_5/model2/block_16_depthwise_BN/FusedBatchNormV3:0">
					<dim>1</dim>
					<dim>336</dim>
					<dim>7</dim>
					<dim>7</dim>
				</port>
			</output>
		</layer>
		<layer id="352" name="sequential_8/sequential_5/model2/block_16_depthwise_relu/Relu6" type="Clamp" version="opset1">
			<data min="0" max="6"/>
			<rt_info>
				<attribute name="fused_names" version="0" value="sequential_8/sequential_5/model2/block_16_depthwise_relu/Relu6"/>
			</rt_info>
			<input>
				<port id="0" precision="FP32">
					<dim>1</dim>
					<dim>336</dim>
					<dim>7</dim>
					<dim>7</dim>
				</port>
			</input>
			<output>
				<port id="1" precision="FP32" names="sequential_8/sequential_5/model2/block_16_depthwise_relu/Relu6:0">
					<dim>1</dim>
					<dim>336</dim>
					<dim>7</dim>
					<dim>7</dim>
				</port>
			</output>
		</layer>
		<layer id="353" name="sequential_8/sequential_5/model2/block_16_project_BN/FusedBatchNormV3/mean/Fused_Mul__copy_compressed" type="Const" version="opset1">
			<data element_type="f16" shape="112, 336, 1, 1" offset="413448" size="75264"/>
			<output>
				<port id="0" precision="FP16">
					<dim>112</dim>
					<dim>336</dim>
					<dim>1</dim>
					<dim>1</dim>
				</port>
			</output>
		</layer>
		<layer id="354" name="sequential_8/sequential_5/model2/block_16_project_BN/FusedBatchNormV3/mean/Fused_Mul__copy" type="Convert" version="opset1">
			<data destination_type="f32"/>
			<rt_info>
				<attribute name="decompression" version="0"/>
				<attribute name="fused_names" version="0" value="sequential_8/sequential_5/model2/block_16_project_BN/FusedBatchNormV3/mean/Fused_Mul__copy"/>
			</rt_info>
			<input>
				<port id="0" precision="FP16">
					<dim>112</dim>
					<dim>336</dim>
					<dim>1</dim>
					<dim>1</dim>
				</port>
			</input>
			<output>
				<port id="1" precision="FP32" names="sequential_8/sequential_5/model2/block_16_project/Conv2D/ReadVariableOp:0">
					<dim>112</dim>
					<dim>336</dim>
					<dim>1</dim>
					<dim>1</dim>
				</port>
			</output>
		</layer>
		<layer id="355" name="sequential_8/sequential_5/model2/block_16_project/Conv2D" type="Convolution" version="opset1">
			<data strides="1, 1" dilations="1, 1" pads_begin="0, 0" pads_end="0, 0" auto_pad="same_upper"/>
			<rt_info>
				<attribute name="fused_names" version="0" value="sequential_8/sequential_5/model2/block_16_project/Conv2D"/>
			</rt_info>
			<input>
				<port id="0" precision="FP32">
					<dim>1</dim>
					<dim>336</dim>
					<dim>7</dim>
					<dim>7</dim>
				</port>
				<port id="1" precision="FP32">
					<dim>112</dim>
					<dim>336</dim>
					<dim>1</dim>
					<dim>1</dim>
				</port>
			</input>
			<output>
				<port id="2" precision="FP32">
					<dim>1</dim>
					<dim>112</dim>
					<dim>7</dim>
					<dim>7</dim>
				</port>
			</output>
		</layer>
		<layer id="356" name="data_add_1237912384_compressed" type="Const" version="opset1">
			<data element_type="f16" shape="1, 112, 1, 1" offset="488712" size="224"/>
			<output>
				<port id="0" precision="FP16">
					<dim>1</dim>
					<dim>112</dim>
					<dim>1</dim>
					<dim>1</dim>
				</port>
			</output>
		</layer>
		<layer id="357" name="data_add_1237912384" type="Convert" version="opset1">
			<data destination_type="f32"/>
			<rt_info>
				<attribute name="decompression" version="0"/>
				<attribute name="fused_names" version="0" value="data_add_1237912384"/>
			</rt_info>
			<input>
				<port id="0" precision="FP16">
					<dim>1</dim>
					<dim>112</dim>
					<dim>1</dim>
					<dim>1</dim>
				</port>
			</input>
			<output>
				<port id="1" precision="FP32">
					<dim>1</dim>
					<dim>112</dim>
					<dim>1</dim>
					<dim>1</dim>
				</port>
			</output>
		</layer>
		<layer id="358" name="sequential_8/sequential_5/model2/block_16_project_BN/FusedBatchNormV3/variance/Fused_Add_" type="Add" version="opset1">
			<data auto_broadcast="numpy"/>
			<rt_info>
				<attribute name="fused_names" version="0" value="sequential_8/sequential_5/model2/block_16_project_BN/FusedBatchNormV3/variance/Fused_Add_"/>
			</rt_info>
			<input>
				<port id="0" precision="FP32">
					<dim>1</dim>
					<dim>112</dim>
					<dim>7</dim>
					<dim>7</dim>
				</port>
				<port id="1" precision="FP32">
					<dim>1</dim>
					<dim>112</dim>
					<dim>1</dim>
					<dim>1</dim>
				</port>
			</input>
			<output>
				<port id="2" precision="FP32" names="sequential_8/sequential_5/model2/block_16_project_BN/FusedBatchNormV3:0">
					<dim>1</dim>
					<dim>112</dim>
					<dim>7</dim>
					<dim>7</dim>
				</port>
			</output>
		</layer>
		<layer id="359" name="sequential_8/sequential_5/model2/Conv_1_bn/FusedBatchNormV3/mean/Fused_Mul__copy_compressed" type="Const" version="opset1">
			<data element_type="f16" shape="1280, 112, 1, 1" offset="488936" size="286720"/>
			<output>
				<port id="0" precision="FP16">
					<dim>1280</dim>
					<dim>112</dim>
					<dim>1</dim>
					<dim>1</dim>
				</port>
			</output>
		</layer>
		<layer id="360" name="sequential_8/sequential_5/model2/Conv_1_bn/FusedBatchNormV3/mean/Fused_Mul__copy" type="Convert" version="opset1">
			<data destination_type="f32"/>
			<rt_info>
				<attribute name="decompression" version="0"/>
				<attribute name="fused_names" version="0" value="sequential_8/sequential_5/model2/Conv_1_bn/FusedBatchNormV3/mean/Fused_Mul__copy"/>
			</rt_info>
			<input>
				<port id="0" precision="FP16">
					<dim>1280</dim>
					<dim>112</dim>
					<dim>1</dim>
					<dim>1</dim>
				</port>
			</input>
			<output>
				<port id="1" precision="FP32" names="sequential_8/sequential_5/model2/Conv_1/Conv2D/ReadVariableOp:0">
					<dim>1280</dim>
					<dim>112</dim>
					<dim>1</dim>
					<dim>1</dim>
				</port>
			</output>
		</layer>
		<layer id="361" name="sequential_8/sequential_5/model2/Conv_1/Conv2D" type="Convolution" version="opset1">
			<data strides="1, 1" dilations="1, 1" pads_begin="0, 0" pads_end="0, 0" auto_pad="valid"/>
			<rt_info>
				<attribute name="fused_names" version="0" value="sequential_8/sequential_5/model2/Conv_1/Conv2D"/>
			</rt_info>
			<input>
				<port id="0" precision="FP32">
					<dim>1</dim>
					<dim>112</dim>
					<dim>7</dim>
					<dim>7</dim>
				</port>
				<port id="1" precision="FP32">
					<dim>1280</dim>
					<dim>112</dim>
					<dim>1</dim>
					<dim>1</dim>
				</port>
			</input>
			<output>
				<port id="2" precision="FP32">
					<dim>1</dim>
					<dim>1280</dim>
					<dim>7</dim>
					<dim>7</dim>
				</port>
			</output>
		</layer>
		<layer id="362" name="data_add_1238712392_compressed" type="Const" version="opset1">
			<data element_type="f16" shape="1, 1280, 1, 1" offset="775656" size="2560"/>
			<output>
				<port id="0" precision="FP16">
					<dim>1</dim>
					<dim>1280</dim>
					<dim>1</dim>
					<dim>1</dim>
				</port>
			</output>
		</layer>
		<layer id="363" name="data_add_1238712392" type="Convert" version="opset1">
			<data destination_type="f32"/>
			<rt_info>
				<attribute name="decompression" version="0"/>
				<attribute name="fused_names" version="0" value="data_add_1238712392"/>
			</rt_info>
			<input>
				<port id="0" precision="FP16">
					<dim>1</dim>
					<dim>1280</dim>
					<dim>1</dim>
					<dim>1</dim>
				</port>
			</input>
			<output>
				<port id="1" precision="FP32">
					<dim>1</dim>
					<dim>1280</dim>
					<dim>1</dim>
					<dim>1</dim>
				</port>
			</output>
		</layer>
		<layer id="364" name="sequential_8/sequential_5/model2/Conv_1_bn/FusedBatchNormV3/variance/Fused_Add_" type="Add" version="opset1">
			<data auto_broadcast="numpy"/>
			<rt_info>
				<attribute name="fused_names" version="0" value="sequential_8/sequential_5/model2/Conv_1_bn/FusedBatchNormV3/variance/Fused_Add_"/>
			</rt_info>
			<input>
				<port id="0" precision="FP32">
					<dim>1</dim>
					<dim>1280</dim>
					<dim>7</dim>
					<dim>7</dim>
				</port>
				<port id="1" precision="FP32">
					<dim>1</dim>
					<dim>1280</dim>
					<dim>1</dim>
					<dim>1</dim>
				</port>
			</input>
			<output>
				<port id="2" precision="FP32" names="sequential_8/sequential_5/model2/Conv_1_bn/FusedBatchNormV3:0">
					<dim>1</dim>
					<dim>1280</dim>
					<dim>7</dim>
					<dim>7</dim>
				</port>
			</output>
		</layer>
		<layer id="365" name="sequential_8/sequential_5/model2/out_relu/Relu6" type="Clamp" version="opset1">
			<data min="0" max="6"/>
			<rt_info>
				<attribute name="fused_names" version="0" value="sequential_8/sequential_5/model2/out_relu/Relu6"/>
			</rt_info>
			<input>
				<port id="0" precision="FP32">
					<dim>1</dim>
					<dim>1280</dim>
					<dim>7</dim>
					<dim>7</dim>
				</port>
			</input>
			<output>
				<port id="1" precision="FP32">
					<dim>1</dim>
					<dim>1280</dim>
					<dim>7</dim>
					<dim>7</dim>
				</port>
			</output>
		</layer>
		<layer id="366" name="sequential_8/sequential_5/global_average_pooling2d_GlobalAveragePooling2D2/MeanGather1708720819" type="Const" version="opset1">
			<data element_type="i64" shape="2" offset="778216" size="16"/>
			<rt_info>
				<attribute name="fused_names" version="0" value="sequential_8/sequential_5/global_average_pooling2d_GlobalAveragePooling2D2/MeanGather1708720819"/>
			</rt_info>
			<output>
				<port id="0" precision="I64">
					<dim>2</dim>
				</port>
			</output>
		</layer>
		<layer id="367" name="sequential_8/sequential_5/global_average_pooling2d_GlobalAveragePooling2D2/Mean" type="ReduceMean" version="opset1">
			<data keep_dims="false"/>
			<rt_info>
				<attribute name="fused_names" version="0" value="sequential_8/sequential_5/global_average_pooling2d_GlobalAveragePooling2D2/Mean"/>
			</rt_info>
			<input>
				<port id="0" precision="FP32">
					<dim>1</dim>
					<dim>1280</dim>
					<dim>7</dim>
					<dim>7</dim>
				</port>
				<port id="1" precision="I64">
					<dim>2</dim>
				</port>
			</input>
			<output>
				<port id="2" precision="FP32" names="sequential_8/sequential_5/global_average_pooling2d_GlobalAveragePooling2D2/Mean:0">
					<dim>1</dim>
					<dim>1280</dim>
				</port>
			</output>
		</layer>
		<layer id="368" name="sequential_8/sequential_7/dense_Dense3/MatMul/ReadVariableOp_compressed" type="Const" version="opset1">
			<data element_type="f16" shape="100, 1280" offset="778232" size="256000"/>
			<output>
				<port id="0" precision="FP16">
					<dim>100</dim>
					<dim>1280</dim>
				</port>
			</output>
		</layer>
		<layer id="369" name="sequential_8/sequential_7/dense_Dense3/MatMul/ReadVariableOp" type="Convert" version="opset1">
			<data destination_type="f32"/>
			<rt_info>
				<attribute name="decompression" version="0"/>
				<attribute name="fused_names" version="0" value="sequential_8/sequential_7/dense_Dense3/MatMul/ReadVariableOp"/>
			</rt_info>
			<input>
				<port id="0" precision="FP16">
					<dim>100</dim>
					<dim>1280</dim>
				</port>
			</input>
			<output>
				<port id="1" precision="FP32" names="sequential_8/sequential_7/dense_Dense3/MatMul/ReadVariableOp:0">
					<dim>100</dim>
					<dim>1280</dim>
				</port>
			</output>
		</layer>
		<layer id="370" name="sequential_8/sequential_7/dense_Dense3/MatMul" type="MatMul" version="opset1">
			<data transpose_a="false" transpose_b="true"/>
			<rt_info>
				<attribute name="fused_names" version="0" value="sequential_8/sequential_7/dense_Dense3/MatMul"/>
			</rt_info>
			<input>
				<port id="0" precision="FP32">
					<dim>1</dim>
					<dim>1280</dim>
				</port>
				<port id="1" precision="FP32">
					<dim>100</dim>
					<dim>1280</dim>
				</port>
			</input>
			<output>
				<port id="2" precision="FP32" names="sequential_8/sequential_7/dense_Dense3/MatMul:0">
					<dim>1</dim>
					<dim>100</dim>
				</port>
			</output>
		</layer>
		<layer id="371" name="sequential_8/sequential_7/dense_Dense3/BiasAdd/ReadVariableOp_compressed" type="Const" version="opset1">
			<data element_type="f16" shape="1, 100" offset="1034232" size="200"/>
			<output>
				<port id="0" precision="FP16">
					<dim>1</dim>
					<dim>100</dim>
				</port>
			</output>
		</layer>
		<layer id="372" name="sequential_8/sequential_7/dense_Dense3/BiasAdd/ReadVariableOp" type="Convert" version="opset1">
			<data destination_type="f32"/>
			<rt_info>
				<attribute name="decompression" version="0"/>
				<attribute name="fused_names" version="0" value="sequential_8/sequential_7/dense_Dense3/BiasAdd/ReadVariableOp"/>
			</rt_info>
			<input>
				<port id="0" precision="FP16">
					<dim>1</dim>
					<dim>100</dim>
				</port>
			</input>
			<output>
				<port id="1" precision="FP32" names="sequential_8/sequential_7/dense_Dense3/BiasAdd/ReadVariableOp:0">
					<dim>1</dim>
					<dim>100</dim>
				</port>
			</output>
		</layer>
		<layer id="373" name="sequential_8/sequential_7/dense_Dense3/BiasAdd/Add" type="Add" version="opset1">
			<data auto_broadcast="numpy"/>
			<rt_info>
				<attribute name="fused_names" version="0" value="sequential_8/sequential_7/dense_Dense3/BiasAdd/Add"/>
			</rt_info>
			<input>
				<port id="0" precision="FP32">
					<dim>1</dim>
					<dim>100</dim>
				</port>
				<port id="1" precision="FP32">
					<dim>1</dim>
					<dim>100</dim>
				</port>
			</input>
			<output>
				<port id="2" precision="FP32" names="sequential_8/sequential_7/dense_Dense3/BiasAdd:0">
					<dim>1</dim>
					<dim>100</dim>
				</port>
			</output>
		</layer>
		<layer id="374" name="sequential_8/sequential_7/dense_Dense3/Relu" type="ReLU" version="opset1">
			<rt_info>
				<attribute name="fused_names" version="0" value="sequential_8/sequential_7/dense_Dense3/Relu"/>
			</rt_info>
			<input>
				<port id="0" precision="FP32">
					<dim>1</dim>
					<dim>100</dim>
				</port>
			</input>
			<output>
				<port id="1" precision="FP32" names="sequential_8/sequential_7/dense_Dense3/Relu:0">
					<dim>1</dim>
					<dim>100</dim>
				</port>
			</output>
		</layer>
		<layer id="375" name="sequential_8/sequential_7/dense_Dense4/MatMul/ReadVariableOp_compressed" type="Const" version="opset1">
			<data element_type="f16" shape="3, 100" offset="1034432" size="600"/>
			<output>
				<port id="0" precision="FP16">
					<dim>3</dim>
					<dim>100</dim>
				</port>
			</output>
		</layer>
		<layer id="376" name="sequential_8/sequential_7/dense_Dense4/MatMul/ReadVariableOp" type="Convert" version="opset1">
			<data destination_type="f32"/>
			<rt_info>
				<attribute name="decompression" version="0"/>
				<attribute name="fused_names" version="0" value="sequential_8/sequential_7/dense_Dense4/MatMul/ReadVariableOp"/>
			</rt_info>
			<input>
				<port id="0" precision="FP16">
					<dim>3</dim>
					<dim>100</dim>
				</port>
			</input>
			<output>
				<port id="1" precision="FP32" names="sequential_8/sequential_7/dense_Dense4/MatMul/ReadVariableOp:0">
					<dim>3</dim>
					<dim>100</dim>
				</port>
			</output>
		</layer>
		<layer id="377" name="sequential_8/sequential_7/dense_Dense4/MatMul" type="MatMul" version="opset1">
			<data transpose_a="false" transpose_b="true"/>
			<rt_info>
				<attribute name="fused_names" version="0" value="sequential_8/sequential_7/dense_Dense4/MatMul"/>
			</rt_info>
			<input>
				<port id="0" precision="FP32">
					<dim>1</dim>
					<dim>100</dim>
				</port>
				<port id="1" precision="FP32">
					<dim>3</dim>
					<dim>100</dim>
				</port>
			</input>
			<output>
				<port id="2" precision="FP32" names="sequential_8/sequential_7/dense_Dense4/MatMul:0">
					<dim>1</dim>
					<dim>3</dim>
				</port>
			</output>
		</layer>
		<layer id="378" name="sequential_8/sequential_7/dense_Dense4/Softmax" type="SoftMax" version="opset8">
			<data axis="1"/>
			<rt_info>
				<attribute name="fused_names" version="0" value="sequential_8/sequential_7/dense_Dense4/Softmax"/>
			</rt_info>
			<input>
				<port id="0" precision="FP32">
					<dim>1</dim>
					<dim>3</dim>
				</port>
			</input>
			<output>
				<port id="1" precision="FP32" names="Identity:0,sequential_8/sequential_7/dense_Dense4/Softmax:0">
					<dim>1</dim>
					<dim>3</dim>
				</port>
			</output>
		</layer>
		<layer id="379" name="Identity:0" type="Result" version="opset1">
			<rt_info>
				<attribute name="fused_names" version="0" value="Identity:0"/>
			</rt_info>
			<input>
				<port id="0" precision="FP32">
					<dim>1</dim>
					<dim>3</dim>
				</port>
			</input>
		</layer>
	</layers>
	<edges>
		<edge from-layer="0" from-port="0" to-layer="2" to-port="0"/>
		<edge from-layer="1" from-port="0" to-layer="2" to-port="1"/>
		<edge from-layer="2" from-port="2" to-layer="5" to-port="0"/>
		<edge from-layer="3" from-port="0" to-layer="4" to-port="0"/>
		<edge from-layer="4" from-port="1" to-layer="5" to-port="1"/>
		<edge from-layer="5" from-port="2" to-layer="8" to-port="0"/>
		<edge from-layer="6" from-port="0" to-layer="7" to-port="0"/>
		<edge from-layer="7" from-port="1" to-layer="8" to-port="1"/>
		<edge from-layer="8" from-port="2" to-layer="11" to-port="0"/>
		<edge from-layer="9" from-port="0" to-layer="10" to-port="0"/>
		<edge from-layer="10" from-port="1" to-layer="11" to-port="1"/>
		<edge from-layer="11" from-port="2" to-layer="14" to-port="0"/>
		<edge from-layer="12" from-port="0" to-layer="13" to-port="0"/>
		<edge from-layer="13" from-port="1" to-layer="14" to-port="1"/>
		<edge from-layer="14" from-port="2" to-layer="15" to-port="0"/>
		<edge from-layer="15" from-port="1" to-layer="18" to-port="0"/>
		<edge from-layer="16" from-port="0" to-layer="17" to-port="0"/>
		<edge from-layer="17" from-port="1" to-layer="18" to-port="1"/>
		<edge from-layer="18" from-port="2" to-layer="21" to-port="0"/>
		<edge from-layer="19" from-port="0" to-layer="20" to-port="0"/>
		<edge from-layer="20" from-port="1" to-layer="21" to-port="1"/>
		<edge from-layer="21" from-port="2" to-layer="22" to-port="0"/>
		<edge from-layer="22" from-port="1" to-layer="25" to-port="0"/>
		<edge from-layer="23" from-port="0" to-layer="24" to-port="0"/>
		<edge from-layer="24" from-port="1" to-layer="25" to-port="1"/>
		<edge from-layer="25" from-port="2" to-layer="28" to-port="0"/>
		<edge from-layer="26" from-port="0" to-layer="27" to-port="0"/>
		<edge from-layer="27" from-port="1" to-layer="28" to-port="1"/>
		<edge from-layer="28" from-port="2" to-layer="31" to-port="0"/>
		<edge from-layer="29" from-port="0" to-layer="30" to-port="0"/>
		<edge from-layer="30" from-port="1" to-layer="31" to-port="1"/>
		<edge from-layer="31" from-port="2" to-layer="34" to-port="0"/>
		<edge from-layer="32" from-port="0" to-layer="33" to-port="0"/>
		<edge from-layer="33" from-port="1" to-layer="34" to-port="1"/>
		<edge from-layer="34" from-port="2" to-layer="35" to-port="0"/>
		<edge from-layer="35" from-port="1" to-layer="38" to-port="0"/>
		<edge from-layer="36" from-port="0" to-layer="37" to-port="0"/>
		<edge from-layer="37" from-port="1" to-layer="38" to-port="1"/>
		<edge from-layer="38" from-port="2" to-layer="41" to-port="0"/>
		<edge from-layer="39" from-port="0" to-layer="40" to-port="0"/>
		<edge from-layer="40" from-port="1" to-layer="41" to-port="1"/>
		<edge from-layer="41" from-port="2" to-layer="42" to-port="0"/>
		<edge from-layer="42" from-port="1" to-layer="45" to-port="0"/>
		<edge from-layer="43" from-port="0" to-layer="44" to-port="0"/>
		<edge from-layer="44" from-port="1" to-layer="45" to-port="1"/>
		<edge from-layer="45" from-port="2" to-layer="48" to-port="0"/>
		<edge from-layer="46" from-port="0" to-layer="47" to-port="0"/>
		<edge from-layer="47" from-port="1" to-layer="48" to-port="1"/>
		<edge from-layer="48" from-port="2" to-layer="69" to-port="0"/>
		<edge from-layer="48" from-port="2" to-layer="51" to-port="0"/>
		<edge from-layer="49" from-port="0" to-layer="50" to-port="0"/>
		<edge from-layer="50" from-port="1" to-layer="51" to-port="1"/>
		<edge from-layer="51" from-port="2" to-layer="54" to-port="0"/>
		<edge from-layer="52" from-port="0" to-layer="53" to-port="0"/>
		<edge from-layer="53" from-port="1" to-layer="54" to-port="1"/>
		<edge from-layer="54" from-port="2" to-layer="55" to-port="0"/>
		<edge from-layer="55" from-port="1" to-layer="58" to-port="0"/>
		<edge from-layer="56" from-port="0" to-layer="57" to-port="0"/>
		<edge from-layer="57" from-port="1" to-layer="58" to-port="1"/>
		<edge from-layer="58" from-port="2" to-layer="61" to-port="0"/>
		<edge from-layer="59" from-port="0" to-layer="60" to-port="0"/>
		<edge from-layer="60" from-port="1" to-layer="61" to-port="1"/>
		<edge from-layer="61" from-port="2" to-layer="62" to-port="0"/>
		<edge from-layer="62" from-port="1" to-layer="65" to-port="0"/>
		<edge from-layer="63" from-port="0" to-layer="64" to-port="0"/>
		<edge from-layer="64" from-port="1" to-layer="65" to-port="1"/>
		<edge from-layer="65" from-port="2" to-layer="68" to-port="0"/>
		<edge from-layer="66" from-port="0" to-layer="67" to-port="0"/>
		<edge from-layer="67" from-port="1" to-layer="68" to-port="1"/>
		<edge from-layer="68" from-port="2" to-layer="69" to-port="1"/>
		<edge from-layer="69" from-port="2" to-layer="72" to-port="0"/>
		<edge from-layer="70" from-port="0" to-layer="71" to-port="0"/>
		<edge from-layer="71" from-port="1" to-layer="72" to-port="1"/>
		<edge from-layer="72" from-port="2" to-layer="75" to-port="0"/>
		<edge from-layer="73" from-port="0" to-layer="74" to-port="0"/>
		<edge from-layer="74" from-port="1" to-layer="75" to-port="1"/>
		<edge from-layer="75" from-port="2" to-layer="76" to-port="0"/>
		<edge from-layer="76" from-port="1" to-layer="79" to-port="0"/>
		<edge from-layer="77" from-port="0" to-layer="78" to-port="0"/>
		<edge from-layer="78" from-port="1" to-layer="79" to-port="1"/>
		<edge from-layer="79" from-port="2" to-layer="82" to-port="0"/>
		<edge from-layer="80" from-port="0" to-layer="81" to-port="0"/>
		<edge from-layer="81" from-port="1" to-layer="82" to-port="1"/>
		<edge from-layer="82" from-port="2" to-layer="83" to-port="0"/>
		<edge from-layer="83" from-port="1" to-layer="86" to-port="0"/>
		<edge from-layer="84" from-port="0" to-layer="85" to-port="0"/>
		<edge from-layer="85" from-port="1" to-layer="86" to-port="1"/>
		<edge from-layer="86" from-port="2" to-layer="89" to-port="0"/>
		<edge from-layer="87" from-port="0" to-layer="88" to-port="0"/>
		<edge from-layer="88" from-port="1" to-layer="89" to-port="1"/>
		<edge from-layer="89" from-port="2" to-layer="92" to-port="0"/>
		<edge from-layer="89" from-port="2" to-layer="110" to-port="0"/>
		<edge from-layer="90" from-port="0" to-layer="91" to-port="0"/>
		<edge from-layer="91" from-port="1" to-layer="92" to-port="1"/>
		<edge from-layer="92" from-port="2" to-layer="95" to-port="0"/>
		<edge from-layer="93" from-port="0" to-layer="94" to-port="0"/>
		<edge from-layer="94" from-port="1" to-layer="95" to-port="1"/>
		<edge from-layer="95" from-port="2" to-layer="96" to-port="0"/>
		<edge from-layer="96" from-port="1" to-layer="99" to-port="0"/>
		<edge from-layer="97" from-port="0" to-layer="98" to-port="0"/>
		<edge from-layer="98" from-port="1" to-layer="99" to-port="1"/>
		<edge from-layer="99" from-port="2" to-layer="102" to-port="0"/>
		<edge from-layer="100" from-port="0" to-layer="101" to-port="0"/>
		<edge from-layer="101" from-port="1" to-layer="102" to-port="1"/>
		<edge from-layer="102" from-port="2" to-layer="103" to-port="0"/>
		<edge from-layer="103" from-port="1" to-layer="106" to-port="0"/>
		<edge from-layer="104" from-port="0" to-layer="105" to-port="0"/>
		<edge from-layer="105" from-port="1" to-layer="106" to-port="1"/>
		<edge from-layer="106" from-port="2" to-layer="109" to-port="0"/>
		<edge from-layer="107" from-port="0" to-layer="108" to-port="0"/>
		<edge from-layer="108" from-port="1" to-layer="109" to-port="1"/>
		<edge from-layer="109" from-port="2" to-layer="110" to-port="1"/>
		<edge from-layer="110" from-port="2" to-layer="113" to-port="0"/>
		<edge from-layer="110" from-port="2" to-layer="131" to-port="0"/>
		<edge from-layer="111" from-port="0" to-layer="112" to-port="0"/>
		<edge from-layer="112" from-port="1" to-layer="113" to-port="1"/>
		<edge from-layer="113" from-port="2" to-layer="116" to-port="0"/>
		<edge from-layer="114" from-port="0" to-layer="115" to-port="0"/>
		<edge from-layer="115" from-port="1" to-layer="116" to-port="1"/>
		<edge from-layer="116" from-port="2" to-layer="117" to-port="0"/>
		<edge from-layer="117" from-port="1" to-layer="120" to-port="0"/>
		<edge from-layer="118" from-port="0" to-layer="119" to-port="0"/>
		<edge from-layer="119" from-port="1" to-layer="120" to-port="1"/>
		<edge from-layer="120" from-port="2" to-layer="123" to-port="0"/>
		<edge from-layer="121" from-port="0" to-layer="122" to-port="0"/>
		<edge from-layer="122" from-port="1" to-layer="123" to-port="1"/>
		<edge from-layer="123" from-port="2" to-layer="124" to-port="0"/>
		<edge from-layer="124" from-port="1" to-layer="127" to-port="0"/>
		<edge from-layer="125" from-port="0" to-layer="126" to-port="0"/>
		<edge from-layer="126" from-port="1" to-layer="127" to-port="1"/>
		<edge from-layer="127" from-port="2" to-layer="130" to-port="0"/>
		<edge from-layer="128" from-port="0" to-layer="129" to-port="0"/>
		<edge from-layer="129" from-port="1" to-layer="130" to-port="1"/>
		<edge from-layer="130" from-port="2" to-layer="131" to-port="1"/>
		<edge from-layer="131" from-port="2" to-layer="134" to-port="0"/>
		<edge from-layer="132" from-port="0" to-layer="133" to-port="0"/>
		<edge from-layer="133" from-port="1" to-layer="134" to-port="1"/>
		<edge from-layer="134" from-port="2" to-layer="137" to-port="0"/>
		<edge from-layer="135" from-port="0" to-layer="136" to-port="0"/>
		<edge from-layer="136" from-port="1" to-layer="137" to-port="1"/>
		<edge from-layer="137" from-port="2" to-layer="138" to-port="0"/>
		<edge from-layer="138" from-port="1" to-layer="141" to-port="0"/>
		<edge from-layer="139" from-port="0" to-layer="140" to-port="0"/>
		<edge from-layer="140" from-port="1" to-layer="141" to-port="1"/>
		<edge from-layer="141" from-port="2" to-layer="144" to-port="0"/>
		<edge from-layer="142" from-port="0" to-layer="143" to-port="0"/>
		<edge from-layer="143" from-port="1" to-layer="144" to-port="1"/>
		<edge from-layer="144" from-port="2" to-layer="145" to-port="0"/>
		<edge from-layer="145" from-port="1" to-layer="148" to-port="0"/>
		<edge from-layer="146" from-port="0" to-layer="147" to-port="0"/>
		<edge from-layer="147" from-port="1" to-layer="148" to-port="1"/>
		<edge from-layer="148" from-port="2" to-layer="151" to-port="0"/>
		<edge from-layer="149" from-port="0" to-layer="150" to-port="0"/>
		<edge from-layer="150" from-port="1" to-layer="151" to-port="1"/>
		<edge from-layer="151" from-port="2" to-layer="154" to-port="0"/>
		<edge from-layer="151" from-port="2" to-layer="172" to-port="0"/>
		<edge from-layer="152" from-port="0" to-layer="153" to-port="0"/>
		<edge from-layer="153" from-port="1" to-layer="154" to-port="1"/>
		<edge from-layer="154" from-port="2" to-layer="157" to-port="0"/>
		<edge from-layer="155" from-port="0" to-layer="156" to-port="0"/>
		<edge from-layer="156" from-port="1" to-layer="157" to-port="1"/>
		<edge from-layer="157" from-port="2" to-layer="158" to-port="0"/>
		<edge from-layer="158" from-port="1" to-layer="161" to-port="0"/>
		<edge from-layer="159" from-port="0" to-layer="160" to-port="0"/>
		<edge from-layer="160" from-port="1" to-layer="161" to-port="1"/>
		<edge from-layer="161" from-port="2" to-layer="164" to-port="0"/>
		<edge from-layer="162" from-port="0" to-layer="163" to-port="0"/>
		<edge from-layer="163" from-port="1" to-layer="164" to-port="1"/>
		<edge from-layer="164" from-port="2" to-layer="165" to-port="0"/>
		<edge from-layer="165" from-port="1" to-layer="168" to-port="0"/>
		<edge from-layer="166" from-port="0" to-layer="167" to-port="0"/>
		<edge from-layer="167" from-port="1" to-layer="168" to-port="1"/>
		<edge from-layer="168" from-port="2" to-layer="171" to-port="0"/>
		<edge from-layer="169" from-port="0" to-layer="170" to-port="0"/>
		<edge from-layer="170" from-port="1" to-layer="171" to-port="1"/>
		<edge from-layer="171" from-port="2" to-layer="172" to-port="1"/>
		<edge from-layer="172" from-port="2" to-layer="175" to-port="0"/>
		<edge from-layer="172" from-port="2" to-layer="193" to-port="0"/>
		<edge from-layer="173" from-port="0" to-layer="174" to-port="0"/>
		<edge from-layer="174" from-port="1" to-layer="175" to-port="1"/>
		<edge from-layer="175" from-port="2" to-layer="178" to-port="0"/>
		<edge from-layer="176" from-port="0" to-layer="177" to-port="0"/>
		<edge from-layer="177" from-port="1" to-layer="178" to-port="1"/>
		<edge from-layer="178" from-port="2" to-layer="179" to-port="0"/>
		<edge from-layer="179" from-port="1" to-layer="182" to-port="0"/>
		<edge from-layer="180" from-port="0" to-layer="181" to-port="0"/>
		<edge from-layer="181" from-port="1" to-layer="182" to-port="1"/>
		<edge from-layer="182" from-port="2" to-layer="185" to-port="0"/>
		<edge from-layer="183" from-port="0" to-layer="184" to-port="0"/>
		<edge from-layer="184" from-port="1" to-layer="185" to-port="1"/>
		<edge from-layer="185" from-port="2" to-layer="186" to-port="0"/>
		<edge from-layer="186" from-port="1" to-layer="189" to-port="0"/>
		<edge from-layer="187" from-port="0" to-layer="188" to-port="0"/>
		<edge from-layer="188" from-port="1" to-layer="189" to-port="1"/>
		<edge from-layer="189" from-port="2" to-layer="192" to-port="0"/>
		<edge from-layer="190" from-port="0" to-layer="191" to-port="0"/>
		<edge from-layer="191" from-port="1" to-layer="192" to-port="1"/>
		<edge from-layer="192" from-port="2" to-layer="193" to-port="1"/>
		<edge from-layer="193" from-port="2" to-layer="196" to-port="0"/>
		<edge from-layer="193" from-port="2" to-layer="214" to-port="0"/>
		<edge from-layer="194" from-port="0" to-layer="195" to-port="0"/>
		<edge from-layer="195" from-port="1" to-layer="196" to-port="1"/>
		<edge from-layer="196" from-port="2" to-layer="199" to-port="0"/>
		<edge from-layer="197" from-port="0" to-layer="198" to-port="0"/>
		<edge from-layer="198" from-port="1" to-layer="199" to-port="1"/>
		<edge from-layer="199" from-port="2" to-layer="200" to-port="0"/>
		<edge from-layer="200" from-port="1" to-layer="203" to-port="0"/>
		<edge from-layer="201" from-port="0" to-layer="202" to-port="0"/>
		<edge from-layer="202" from-port="1" to-layer="203" to-port="1"/>
		<edge from-layer="203" from-port="2" to-layer="206" to-port="0"/>
		<edge from-layer="204" from-port="0" to-layer="205" to-port="0"/>
		<edge from-layer="205" from-port="1" to-layer="206" to-port="1"/>
		<edge from-layer="206" from-port="2" to-layer="207" to-port="0"/>
		<edge from-layer="207" from-port="1" to-layer="210" to-port="0"/>
		<edge from-layer="208" from-port="0" to-layer="209" to-port="0"/>
		<edge from-layer="209" from-port="1" to-layer="210" to-port="1"/>
		<edge from-layer="210" from-port="2" to-layer="213" to-port="0"/>
		<edge from-layer="211" from-port="0" to-layer="212" to-port="0"/>
		<edge from-layer="212" from-port="1" to-layer="213" to-port="1"/>
		<edge from-layer="213" from-port="2" to-layer="214" to-port="1"/>
		<edge from-layer="214" from-port="2" to-layer="217" to-port="0"/>
		<edge from-layer="215" from-port="0" to-layer="216" to-port="0"/>
		<edge from-layer="216" from-port="1" to-layer="217" to-port="1"/>
		<edge from-layer="217" from-port="2" to-layer="220" to-port="0"/>
		<edge from-layer="218" from-port="0" to-layer="219" to-port="0"/>
		<edge from-layer="219" from-port="1" to-layer="220" to-port="1"/>
		<edge from-layer="220" from-port="2" to-layer="221" to-port="0"/>
		<edge from-layer="221" from-port="1" to-layer="224" to-port="0"/>
		<edge from-layer="222" from-port="0" to-layer="223" to-port="0"/>
		<edge from-layer="223" from-port="1" to-layer="224" to-port="1"/>
		<edge from-layer="224" from-port="2" to-layer="227" to-port="0"/>
		<edge from-layer="225" from-port="0" to-layer="226" to-port="0"/>
		<edge from-layer="226" from-port="1" to-layer="227" to-port="1"/>
		<edge from-layer="227" from-port="2" to-layer="228" to-port="0"/>
		<edge from-layer="228" from-port="1" to-layer="231" to-port="0"/>
		<edge from-layer="229" from-port="0" to-layer="230" to-port="0"/>
		<edge from-layer="230" from-port="1" to-layer="231" to-port="1"/>
		<edge from-layer="231" from-port="2" to-layer="234" to-port="0"/>
		<edge from-layer="232" from-port="0" to-layer="233" to-port="0"/>
		<edge from-layer="233" from-port="1" to-layer="234" to-port="1"/>
		<edge from-layer="234" from-port="2" to-layer="237" to-port="0"/>
		<edge from-layer="234" from-port="2" to-layer="255" to-port="0"/>
		<edge from-layer="235" from-port="0" to-layer="236" to-port="0"/>
		<edge from-layer="236" from-port="1" to-layer="237" to-port="1"/>
		<edge from-layer="237" from-port="2" to-layer="240" to-port="0"/>
		<edge from-layer="238" from-port="0" to-layer="239" to-port="0"/>
		<edge from-layer="239" from-port="1" to-layer="240" to-port="1"/>
		<edge from-layer="240" from-port="2" to-layer="241" to-port="0"/>
		<edge from-layer="241" from-port="1" to-layer="244" to-port="0"/>
		<edge from-layer="242" from-port="0" to-layer="243" to-port="0"/>
		<edge from-layer="243" from-port="1" to-layer="244" to-port="1"/>
		<edge from-layer="244" from-port="2" to-layer="247" to-port="0"/>
		<edge from-layer="245" from-port="0" to-layer="246" to-port="0"/>
		<edge from-layer="246" from-port="1" to-layer="247" to-port="1"/>
		<edge from-layer="247" from-port="2" to-layer="248" to-port="0"/>
		<edge from-layer="248" from-port="1" to-layer="251" to-port="0"/>
		<edge from-layer="249" from-port="0" to-layer="250" to-port="0"/>
		<edge from-layer="250" from-port="1" to-layer="251" to-port="1"/>
		<edge from-layer="251" from-port="2" to-layer="254" to-port="0"/>
		<edge from-layer="252" from-port="0" to-layer="253" to-port="0"/>
		<edge from-layer="253" from-port="1" to-layer="254" to-port="1"/>
		<edge from-layer="254" from-port="2" to-layer="255" to-port="1"/>
		<edge from-layer="255" from-port="2" to-layer="258" to-port="0"/>
		<edge from-layer="255" from-port="2" to-layer="276" to-port="0"/>
		<edge from-layer="256" from-port="0" to-layer="257" to-port="0"/>
		<edge from-layer="257" from-port="1" to-layer="258" to-port="1"/>
		<edge from-layer="258" from-port="2" to-layer="261" to-port="0"/>
		<edge from-layer="259" from-port="0" to-layer="260" to-port="0"/>
		<edge from-layer="260" from-port="1" to-layer="261" to-port="1"/>
		<edge from-layer="261" from-port="2" to-layer="262" to-port="0"/>
		<edge from-layer="262" from-port="1" to-layer="265" to-port="0"/>
		<edge from-layer="263" from-port="0" to-layer="264" to-port="0"/>
		<edge from-layer="264" from-port="1" to-layer="265" to-port="1"/>
		<edge from-layer="265" from-port="2" to-layer="268" to-port="0"/>
		<edge from-layer="266" from-port="0" to-layer="267" to-port="0"/>
		<edge from-layer="267" from-port="1" to-layer="268" to-port="1"/>
		<edge from-layer="268" from-port="2" to-layer="269" to-port="0"/>
		<edge from-layer="269" from-port="1" to-layer="272" to-port="0"/>
		<edge from-layer="270" from-port="0" to-layer="271" to-port="0"/>
		<edge from-layer="271" from-port="1" to-layer="272" to-port="1"/>
		<edge from-layer="272" from-port="2" to-layer="275" to-port="0"/>
		<edge from-layer="273" from-port="0" to-layer="274" to-port="0"/>
		<edge from-layer="274" from-port="1" to-layer="275" to-port="1"/>
		<edge from-layer="275" from-port="2" to-layer="276" to-port="1"/>
		<edge from-layer="276" from-port="2" to-layer="279" to-port="0"/>
		<edge from-layer="277" from-port="0" to-layer="278" to-port="0"/>
		<edge from-layer="278" from-port="1" to-layer="279" to-port="1"/>
		<edge from-layer="279" from-port="2" to-layer="282" to-port="0"/>
		<edge from-layer="280" from-port="0" to-layer="281" to-port="0"/>
		<edge from-layer="281" from-port="1" to-layer="282" to-port="1"/>
		<edge from-layer="282" from-port="2" to-layer="283" to-port="0"/>
		<edge from-layer="283" from-port="1" to-layer="286" to-port="0"/>
		<edge from-layer="284" from-port="0" to-layer="285" to-port="0"/>
		<edge from-layer="285" from-port="1" to-layer="286" to-port="1"/>
		<edge from-layer="286" from-port="2" to-layer="289" to-port="0"/>
		<edge from-layer="287" from-port="0" to-layer="288" to-port="0"/>
		<edge from-layer="288" from-port="1" to-layer="289" to-port="1"/>
		<edge from-layer="289" from-port="2" to-layer="290" to-port="0"/>
		<edge from-layer="290" from-port="1" to-layer="293" to-port="0"/>
		<edge from-layer="291" from-port="0" to-layer="292" to-port="0"/>
		<edge from-layer="292" from-port="1" to-layer="293" to-port="1"/>
		<edge from-layer="293" from-port="2" to-layer="296" to-port="0"/>
		<edge from-layer="294" from-port="0" to-layer="295" to-port="0"/>
		<edge from-layer="295" from-port="1" to-layer="296" to-port="1"/>
		<edge from-layer="296" from-port="2" to-layer="299" to-port="0"/>
		<edge from-layer="296" from-port="2" to-layer="317" to-port="0"/>
		<edge from-layer="297" from-port="0" to-layer="298" to-port="0"/>
		<edge from-layer="298" from-port="1" to-layer="299" to-port="1"/>
		<edge from-layer="299" from-port="2" to-layer="302" to-port="0"/>
		<edge from-layer="300" from-port="0" to-layer="301" to-port="0"/>
		<edge from-layer="301" from-port="1" to-layer="302" to-port="1"/>
		<edge from-layer="302" from-port="2" to-layer="303" to-port="0"/>
		<edge from-layer="303" from-port="1" to-layer="306" to-port="0"/>
		<edge from-layer="304" from-port="0" to-layer="305" to-port="0"/>
		<edge from-layer="305" from-port="1" to-layer="306" to-port="1"/>
		<edge from-layer="306" from-port="2" to-layer="309" to-port="0"/>
		<edge from-layer="307" from-port="0" to-layer="308" to-port="0"/>
		<edge from-layer="308" from-port="1" to-layer="309" to-port="1"/>
		<edge from-layer="309" from-port="2" to-layer="310" to-port="0"/>
		<edge from-layer="310" from-port="1" to-layer="313" to-port="0"/>
		<edge from-layer="311" from-port="0" to-layer="312" to-port="0"/>
		<edge from-layer="312" from-port="1" to-layer="313" to-port="1"/>
		<edge from-layer="313" from-port="2" to-layer="316" to-port="0"/>
		<edge from-layer="314" from-port="0" to-layer="315" to-port="0"/>
		<edge from-layer="315" from-port="1" to-layer="316" to-port="1"/>
		<edge from-layer="316" from-port="2" to-layer="317" to-port="1"/>
		<edge from-layer="317" from-port="2" to-layer="320" to-port="0"/>
		<edge from-layer="317" from-port="2" to-layer="338" to-port="0"/>
		<edge from-layer="318" from-port="0" to-layer="319" to-port="0"/>
		<edge from-layer="319" from-port="1" to-layer="320" to-port="1"/>
		<edge from-layer="320" from-port="2" to-layer="323" to-port="0"/>
		<edge from-layer="321" from-port="0" to-layer="322" to-port="0"/>
		<edge from-layer="322" from-port="1" to-layer="323" to-port="1"/>
		<edge from-layer="323" from-port="2" to-layer="324" to-port="0"/>
		<edge from-layer="324" from-port="1" to-layer="327" to-port="0"/>
		<edge from-layer="325" from-port="0" to-layer="326" to-port="0"/>
		<edge from-layer="326" from-port="1" to-layer="327" to-port="1"/>
		<edge from-layer="327" from-port="2" to-layer="330" to-port="0"/>
		<edge from-layer="328" from-port="0" to-layer="329" to-port="0"/>
		<edge from-layer="329" from-port="1" to-layer="330" to-port="1"/>
		<edge from-layer="330" from-port="2" to-layer="331" to-port="0"/>
		<edge from-layer="331" from-port="1" to-layer="334" to-port="0"/>
		<edge from-layer="332" from-port="0" to-layer="333" to-port="0"/>
		<edge from-layer="333" from-port="1" to-layer="334" to-port="1"/>
		<edge from-layer="334" from-port="2" to-layer="337" to-port="0"/>
		<edge from-layer="335" from-port="0" to-layer="336" to-port="0"/>
		<edge from-layer="336" from-port="1" to-layer="337" to-port="1"/>
		<edge from-layer="337" from-port="2" to-layer="338" to-port="1"/>
		<edge from-layer="338" from-port="2" to-layer="341" to-port="0"/>
		<edge from-layer="339" from-port="0" to-layer="340" to-port="0"/>
		<edge from-layer="340" from-port="1" to-layer="341" to-port="1"/>
		<edge from-layer="341" from-port="2" to-layer="344" to-port="0"/>
		<edge from-layer="342" from-port="0" to-layer="343" to-port="0"/>
		<edge from-layer="343" from-port="1" to-layer="344" to-port="1"/>
		<edge from-layer="344" from-port="2" to-layer="345" to-port="0"/>
		<edge from-layer="345" from-port="1" to-layer="348" to-port="0"/>
		<edge from-layer="346" from-port="0" to-layer="347" to-port="0"/>
		<edge from-layer="347" from-port="1" to-layer="348" to-port="1"/>
		<edge from-layer="348" from-port="2" to-layer="351" to-port="0"/>
		<edge from-layer="349" from-port="0" to-layer="350" to-port="0"/>
		<edge from-layer="350" from-port="1" to-layer="351" to-port="1"/>
		<edge from-layer="351" from-port="2" to-layer="352" to-port="0"/>
		<edge from-layer="352" from-port="1" to-layer="355" to-port="0"/>
		<edge from-layer="353" from-port="0" to-layer="354" to-port="0"/>
		<edge from-layer="354" from-port="1" to-layer="355" to-port="1"/>
		<edge from-layer="355" from-port="2" to-layer="358" to-port="0"/>
		<edge from-layer="356" from-port="0" to-layer="357" to-port="0"/>
		<edge from-layer="357" from-port="1" to-layer="358" to-port="1"/>
		<edge from-layer="358" from-port="2" to-layer="361" to-port="0"/>
		<edge from-layer="359" from-port="0" to-layer="360" to-port="0"/>
		<edge from-layer="360" from-port="1" to-layer="361" to-port="1"/>
		<edge from-layer="361" from-port="2" to-layer="364" to-port="0"/>
		<edge from-layer="362" from-port="0" to-layer="363" to-port="0"/>
		<edge from-layer="363" from-port="1" to-layer="364" to-port="1"/>
		<edge from-layer="364" from-port="2" to-layer="365" to-port="0"/>
		<edge from-layer="365" from-port="1" to-layer="367" to-port="0"/>
		<edge from-layer="366" from-port="0" to-layer="367" to-port="1"/>
		<edge from-layer="367" from-port="2" to-layer="370" to-port="0"/>
		<edge from-layer="368" from-port="0" to-layer="369" to-port="0"/>
		<edge from-layer="369" from-port="1" to-layer="370" to-port="1"/>
		<edge from-layer="370" from-port="2" to-layer="373" to-port="0"/>
		<edge from-layer="371" from-port="0" to-layer="372" to-port="0"/>
		<edge from-layer="372" from-port="1" to-layer="373" to-port="1"/>
		<edge from-layer="373" from-port="2" to-layer="374" to-port="0"/>
		<edge from-layer="374" from-port="1" to-layer="377" to-port="0"/>
		<edge from-layer="375" from-port="0" to-layer="376" to-port="0"/>
		<edge from-layer="376" from-port="1" to-layer="377" to-port="1"/>
		<edge from-layer="377" from-port="2" to-layer="378" to-port="0"/>
		<edge from-layer="378" from-port="1" to-layer="379" to-port="0"/>
	</edges>
	<meta_data>
		<MO_version value="2022.1.0-7019-cdb9bec7210-releases/2022/1"/>
		<Runtime_version value="2022.1.0-7019-cdb9bec7210-releases/2022/1"/>
		<legacy_path value="True"/>
		<cli_parameters>
			<caffe_parser_path value="DIR"/>
			<compress_fp16 value="True"/>
			<data_type value="FP16"/>
			<disable_nhwc_to_nchw value="False"/>
			<disable_omitting_optional value="False"/>
			<disable_resnet_optimization value="False"/>
			<disable_weights_compression value="False"/>
			<enable_concat_optimization value="False"/>
			<enable_flattening_nested_params value="False"/>
			<enable_ssd_gluoncv value="False"/>
			<extensions value="DIR"/>
			<framework value="tf"/>
			<freeze_placeholder_with_value value="{}"/>
			<input_model value="DIR\frozen_graph.pb"/>
			<input_model_is_text value="False"/>
			<input_shape value="[1,224,224,3]"/>
			<k value="DIR\CustomLayersMapping.xml"/>
			<layout value="()"/>
			<layout_values value="{}"/>
			<legacy_mxnet_model value="False"/>
			<log_level value="ERROR"/>
			<mean_scale_values value="[(array([127.5, 127.5, 127.5]), array([127.]))]"/>
			<mean_values value="[127.5,127.5,127.5]"/>
			<model_name value="frozen_graph"/>
			<output_dir value="DIR"/>
			<packed_user_shapes value="defaultdict(&lt;class 'list'&gt;, {'x': [{'shape': (1, 224, 224, 3), 'port': None, 'added': True}]})"/>
			<placeholder_data_types value="{}"/>
			<placeholder_shapes value="(1, 224, 224, 3)"/>
			<progress value="False"/>
			<remove_memory value="False"/>
			<remove_output_softmax value="False"/>
			<reverse_input_channels value="False"/>
			<save_params_from_nd value="False"/>
			<scale_values value="[127.0]"/>
			<silent value="False"/>
			<source_layout value="()"/>
			<static_shape value="False"/>
			<stream_output value="False"/>
			<target_layout value="()"/>
			<transform value=""/>
			<use_legacy_frontend value="False"/>
			<use_new_frontend value="False"/>
			<unset unset_cli_parameters="batch, counts, disable_fusing, finegrain_fusing, input, input_checkpoint, input_meta_graph, input_proto, input_symbol, mean_file, mean_file_offsets, nd_prefix_name, output, pretrained_model_name, saved_model_dir, saved_model_tags, scale, tensorboard_logdir, tensorflow_custom_layer_libraries, tensorflow_custom_operations_config_update, tensorflow_object_detection_api_pipeline_config, tensorflow_use_custom_operations_config, transformations_config"/>
		</cli_parameters>
	</meta_data>
</net>
